<?xml version="1.0"?>
<net name="main_graph" version="11">
	<layers>
		<layer id="1" name="input_ids" type="Parameter" version="opset1">
			<data shape="?,?" element_type="i64" />
			<rt_info>
				<attribute name="old_api_map_element_type" version="0" value="i32" />
			</rt_info>
			<output>
				<port id="0" precision="I64" names="input_ids">
					<dim>-1</dim>
					<dim>-1</dim>
				</port>
			</output>
		</layer>
		<layer id="0" name="attention_mask" type="Parameter" version="opset1">
			<data shape="?,?" element_type="i64" />
			<rt_info>
				<attribute name="old_api_map_element_type" version="0" value="i32" />
			</rt_info>
			<output>
				<port id="0" precision="I64" names="attention_mask">
					<dim>-1</dim>
					<dim>-1</dim>
				</port>
			</output>
		</layer>
		<layer id="2" name="Constant_4325_compressed" type="Const" version="opset1">
			<data element_type="f16" shape="1, 1, 384" offset="0" size="768" />
			<output>
				<port id="0" precision="FP16">
					<dim>1</dim>
					<dim>1</dim>
					<dim>384</dim>
				</port>
			</output>
		</layer>
		<layer id="3" name="Constant_4325" type="Convert" version="opset1">
			<data destination_type="f32" />
			<rt_info>
				<attribute name="decompression" version="0" />
			</rt_info>
			<input>
				<port id="0" precision="FP16">
					<dim>1</dim>
					<dim>1</dim>
					<dim>384</dim>
				</port>
			</input>
			<output>
				<port id="1" precision="FP32">
					<dim>1</dim>
					<dim>1</dim>
					<dim>384</dim>
				</port>
			</output>
		</layer>
		<layer id="4" name="Constant_4324_compressed" type="Const" version="opset1">
			<data element_type="f16" shape="1, 1, 1536" offset="768" size="3072" />
			<output>
				<port id="0" precision="FP16">
					<dim>1</dim>
					<dim>1</dim>
					<dim>1536</dim>
				</port>
			</output>
		</layer>
		<layer id="5" name="Constant_4324" type="Convert" version="opset1">
			<data destination_type="f32" />
			<rt_info>
				<attribute name="decompression" version="0" />
			</rt_info>
			<input>
				<port id="0" precision="FP16">
					<dim>1</dim>
					<dim>1</dim>
					<dim>1536</dim>
				</port>
			</input>
			<output>
				<port id="1" precision="FP32">
					<dim>1</dim>
					<dim>1</dim>
					<dim>1536</dim>
				</port>
			</output>
		</layer>
		<layer id="6" name="Constant_4321_compressed" type="Const" version="opset1">
			<data element_type="f16" shape="1, 1, 384" offset="3840" size="768" />
			<output>
				<port id="0" precision="FP16">
					<dim>1</dim>
					<dim>1</dim>
					<dim>384</dim>
				</port>
			</output>
		</layer>
		<layer id="7" name="Constant_4321" type="Convert" version="opset1">
			<data destination_type="f32" />
			<rt_info>
				<attribute name="decompression" version="0" />
			</rt_info>
			<input>
				<port id="0" precision="FP16">
					<dim>1</dim>
					<dim>1</dim>
					<dim>384</dim>
				</port>
			</input>
			<output>
				<port id="1" precision="FP32">
					<dim>1</dim>
					<dim>1</dim>
					<dim>384</dim>
				</port>
			</output>
		</layer>
		<layer id="8" name="Constant_4318_compressed" type="Const" version="opset1">
			<data element_type="f16" shape="1, 1, 384" offset="4608" size="768" />
			<output>
				<port id="0" precision="FP16">
					<dim>1</dim>
					<dim>1</dim>
					<dim>384</dim>
				</port>
			</output>
		</layer>
		<layer id="9" name="Constant_4318" type="Convert" version="opset1">
			<data destination_type="f32" />
			<rt_info>
				<attribute name="decompression" version="0" />
			</rt_info>
			<input>
				<port id="0" precision="FP16">
					<dim>1</dim>
					<dim>1</dim>
					<dim>384</dim>
				</port>
			</input>
			<output>
				<port id="1" precision="FP32">
					<dim>1</dim>
					<dim>1</dim>
					<dim>384</dim>
				</port>
			</output>
		</layer>
		<layer id="10" name="Constant_4315_compressed" type="Const" version="opset1">
			<data element_type="f16" shape="1, 1, 384" offset="5376" size="768" />
			<output>
				<port id="0" precision="FP16">
					<dim>1</dim>
					<dim>1</dim>
					<dim>384</dim>
				</port>
			</output>
		</layer>
		<layer id="11" name="Constant_4315" type="Convert" version="opset1">
			<data destination_type="f32" />
			<rt_info>
				<attribute name="decompression" version="0" />
			</rt_info>
			<input>
				<port id="0" precision="FP16">
					<dim>1</dim>
					<dim>1</dim>
					<dim>384</dim>
				</port>
			</input>
			<output>
				<port id="1" precision="FP32">
					<dim>1</dim>
					<dim>1</dim>
					<dim>384</dim>
				</port>
			</output>
		</layer>
		<layer id="12" name="Constant_4314_compressed" type="Const" version="opset1">
			<data element_type="f16" shape="1, 1, 1536" offset="6144" size="3072" />
			<output>
				<port id="0" precision="FP16">
					<dim>1</dim>
					<dim>1</dim>
					<dim>1536</dim>
				</port>
			</output>
		</layer>
		<layer id="13" name="Constant_4314" type="Convert" version="opset1">
			<data destination_type="f32" />
			<rt_info>
				<attribute name="decompression" version="0" />
			</rt_info>
			<input>
				<port id="0" precision="FP16">
					<dim>1</dim>
					<dim>1</dim>
					<dim>1536</dim>
				</port>
			</input>
			<output>
				<port id="1" precision="FP32">
					<dim>1</dim>
					<dim>1</dim>
					<dim>1536</dim>
				</port>
			</output>
		</layer>
		<layer id="14" name="Constant_4311_compressed" type="Const" version="opset1">
			<data element_type="f16" shape="1, 1, 384" offset="9216" size="768" />
			<output>
				<port id="0" precision="FP16">
					<dim>1</dim>
					<dim>1</dim>
					<dim>384</dim>
				</port>
			</output>
		</layer>
		<layer id="15" name="Constant_4311" type="Convert" version="opset1">
			<data destination_type="f32" />
			<rt_info>
				<attribute name="decompression" version="0" />
			</rt_info>
			<input>
				<port id="0" precision="FP16">
					<dim>1</dim>
					<dim>1</dim>
					<dim>384</dim>
				</port>
			</input>
			<output>
				<port id="1" precision="FP32">
					<dim>1</dim>
					<dim>1</dim>
					<dim>384</dim>
				</port>
			</output>
		</layer>
		<layer id="16" name="Constant_4308_compressed" type="Const" version="opset1">
			<data element_type="f16" shape="1, 1, 384" offset="9984" size="768" />
			<output>
				<port id="0" precision="FP16">
					<dim>1</dim>
					<dim>1</dim>
					<dim>384</dim>
				</port>
			</output>
		</layer>
		<layer id="17" name="Constant_4308" type="Convert" version="opset1">
			<data destination_type="f32" />
			<rt_info>
				<attribute name="decompression" version="0" />
			</rt_info>
			<input>
				<port id="0" precision="FP16">
					<dim>1</dim>
					<dim>1</dim>
					<dim>384</dim>
				</port>
			</input>
			<output>
				<port id="1" precision="FP32">
					<dim>1</dim>
					<dim>1</dim>
					<dim>384</dim>
				</port>
			</output>
		</layer>
		<layer id="18" name="Constant_4305_compressed" type="Const" version="opset1">
			<data element_type="f16" shape="1, 1, 384" offset="10752" size="768" />
			<output>
				<port id="0" precision="FP16">
					<dim>1</dim>
					<dim>1</dim>
					<dim>384</dim>
				</port>
			</output>
		</layer>
		<layer id="19" name="Constant_4305" type="Convert" version="opset1">
			<data destination_type="f32" />
			<rt_info>
				<attribute name="decompression" version="0" />
			</rt_info>
			<input>
				<port id="0" precision="FP16">
					<dim>1</dim>
					<dim>1</dim>
					<dim>384</dim>
				</port>
			</input>
			<output>
				<port id="1" precision="FP32">
					<dim>1</dim>
					<dim>1</dim>
					<dim>384</dim>
				</port>
			</output>
		</layer>
		<layer id="20" name="Constant_4304_compressed" type="Const" version="opset1">
			<data element_type="f16" shape="1, 1, 1536" offset="11520" size="3072" />
			<output>
				<port id="0" precision="FP16">
					<dim>1</dim>
					<dim>1</dim>
					<dim>1536</dim>
				</port>
			</output>
		</layer>
		<layer id="21" name="Constant_4304" type="Convert" version="opset1">
			<data destination_type="f32" />
			<rt_info>
				<attribute name="decompression" version="0" />
			</rt_info>
			<input>
				<port id="0" precision="FP16">
					<dim>1</dim>
					<dim>1</dim>
					<dim>1536</dim>
				</port>
			</input>
			<output>
				<port id="1" precision="FP32">
					<dim>1</dim>
					<dim>1</dim>
					<dim>1536</dim>
				</port>
			</output>
		</layer>
		<layer id="22" name="Constant_4301_compressed" type="Const" version="opset1">
			<data element_type="f16" shape="1, 1, 384" offset="14592" size="768" />
			<output>
				<port id="0" precision="FP16">
					<dim>1</dim>
					<dim>1</dim>
					<dim>384</dim>
				</port>
			</output>
		</layer>
		<layer id="23" name="Constant_4301" type="Convert" version="opset1">
			<data destination_type="f32" />
			<rt_info>
				<attribute name="decompression" version="0" />
			</rt_info>
			<input>
				<port id="0" precision="FP16">
					<dim>1</dim>
					<dim>1</dim>
					<dim>384</dim>
				</port>
			</input>
			<output>
				<port id="1" precision="FP32">
					<dim>1</dim>
					<dim>1</dim>
					<dim>384</dim>
				</port>
			</output>
		</layer>
		<layer id="24" name="Constant_4298_compressed" type="Const" version="opset1">
			<data element_type="f16" shape="1, 1, 384" offset="15360" size="768" />
			<output>
				<port id="0" precision="FP16">
					<dim>1</dim>
					<dim>1</dim>
					<dim>384</dim>
				</port>
			</output>
		</layer>
		<layer id="25" name="Constant_4298" type="Convert" version="opset1">
			<data destination_type="f32" />
			<rt_info>
				<attribute name="decompression" version="0" />
			</rt_info>
			<input>
				<port id="0" precision="FP16">
					<dim>1</dim>
					<dim>1</dim>
					<dim>384</dim>
				</port>
			</input>
			<output>
				<port id="1" precision="FP32">
					<dim>1</dim>
					<dim>1</dim>
					<dim>384</dim>
				</port>
			</output>
		</layer>
		<layer id="26" name="Constant_4295_compressed" type="Const" version="opset1">
			<data element_type="f16" shape="1, 1, 384" offset="16128" size="768" />
			<output>
				<port id="0" precision="FP16">
					<dim>1</dim>
					<dim>1</dim>
					<dim>384</dim>
				</port>
			</output>
		</layer>
		<layer id="27" name="Constant_4295" type="Convert" version="opset1">
			<data destination_type="f32" />
			<rt_info>
				<attribute name="decompression" version="0" />
			</rt_info>
			<input>
				<port id="0" precision="FP16">
					<dim>1</dim>
					<dim>1</dim>
					<dim>384</dim>
				</port>
			</input>
			<output>
				<port id="1" precision="FP32">
					<dim>1</dim>
					<dim>1</dim>
					<dim>384</dim>
				</port>
			</output>
		</layer>
		<layer id="28" name="Constant_4294_compressed" type="Const" version="opset1">
			<data element_type="f16" shape="1, 1, 1536" offset="16896" size="3072" />
			<output>
				<port id="0" precision="FP16">
					<dim>1</dim>
					<dim>1</dim>
					<dim>1536</dim>
				</port>
			</output>
		</layer>
		<layer id="29" name="Constant_4294" type="Convert" version="opset1">
			<data destination_type="f32" />
			<rt_info>
				<attribute name="decompression" version="0" />
			</rt_info>
			<input>
				<port id="0" precision="FP16">
					<dim>1</dim>
					<dim>1</dim>
					<dim>1536</dim>
				</port>
			</input>
			<output>
				<port id="1" precision="FP32">
					<dim>1</dim>
					<dim>1</dim>
					<dim>1536</dim>
				</port>
			</output>
		</layer>
		<layer id="30" name="Constant_4291_compressed" type="Const" version="opset1">
			<data element_type="f16" shape="1, 1, 384" offset="19968" size="768" />
			<output>
				<port id="0" precision="FP16">
					<dim>1</dim>
					<dim>1</dim>
					<dim>384</dim>
				</port>
			</output>
		</layer>
		<layer id="31" name="Constant_4291" type="Convert" version="opset1">
			<data destination_type="f32" />
			<rt_info>
				<attribute name="decompression" version="0" />
			</rt_info>
			<input>
				<port id="0" precision="FP16">
					<dim>1</dim>
					<dim>1</dim>
					<dim>384</dim>
				</port>
			</input>
			<output>
				<port id="1" precision="FP32">
					<dim>1</dim>
					<dim>1</dim>
					<dim>384</dim>
				</port>
			</output>
		</layer>
		<layer id="32" name="Constant_4288_compressed" type="Const" version="opset1">
			<data element_type="f16" shape="1, 1, 384" offset="20736" size="768" />
			<output>
				<port id="0" precision="FP16">
					<dim>1</dim>
					<dim>1</dim>
					<dim>384</dim>
				</port>
			</output>
		</layer>
		<layer id="33" name="Constant_4288" type="Convert" version="opset1">
			<data destination_type="f32" />
			<rt_info>
				<attribute name="decompression" version="0" />
			</rt_info>
			<input>
				<port id="0" precision="FP16">
					<dim>1</dim>
					<dim>1</dim>
					<dim>384</dim>
				</port>
			</input>
			<output>
				<port id="1" precision="FP32">
					<dim>1</dim>
					<dim>1</dim>
					<dim>384</dim>
				</port>
			</output>
		</layer>
		<layer id="34" name="Constant_4285_compressed" type="Const" version="opset1">
			<data element_type="f16" shape="1, 1, 384" offset="21504" size="768" />
			<output>
				<port id="0" precision="FP16">
					<dim>1</dim>
					<dim>1</dim>
					<dim>384</dim>
				</port>
			</output>
		</layer>
		<layer id="35" name="Constant_4285" type="Convert" version="opset1">
			<data destination_type="f32" />
			<rt_info>
				<attribute name="decompression" version="0" />
			</rt_info>
			<input>
				<port id="0" precision="FP16">
					<dim>1</dim>
					<dim>1</dim>
					<dim>384</dim>
				</port>
			</input>
			<output>
				<port id="1" precision="FP32">
					<dim>1</dim>
					<dim>1</dim>
					<dim>384</dim>
				</port>
			</output>
		</layer>
		<layer id="36" name="Constant_4284_compressed" type="Const" version="opset1">
			<data element_type="f16" shape="1, 1, 1536" offset="22272" size="3072" />
			<output>
				<port id="0" precision="FP16">
					<dim>1</dim>
					<dim>1</dim>
					<dim>1536</dim>
				</port>
			</output>
		</layer>
		<layer id="37" name="Constant_4284" type="Convert" version="opset1">
			<data destination_type="f32" />
			<rt_info>
				<attribute name="decompression" version="0" />
			</rt_info>
			<input>
				<port id="0" precision="FP16">
					<dim>1</dim>
					<dim>1</dim>
					<dim>1536</dim>
				</port>
			</input>
			<output>
				<port id="1" precision="FP32">
					<dim>1</dim>
					<dim>1</dim>
					<dim>1536</dim>
				</port>
			</output>
		</layer>
		<layer id="38" name="Constant_4281_compressed" type="Const" version="opset1">
			<data element_type="f16" shape="1, 1, 384" offset="25344" size="768" />
			<output>
				<port id="0" precision="FP16">
					<dim>1</dim>
					<dim>1</dim>
					<dim>384</dim>
				</port>
			</output>
		</layer>
		<layer id="39" name="Constant_4281" type="Convert" version="opset1">
			<data destination_type="f32" />
			<rt_info>
				<attribute name="decompression" version="0" />
			</rt_info>
			<input>
				<port id="0" precision="FP16">
					<dim>1</dim>
					<dim>1</dim>
					<dim>384</dim>
				</port>
			</input>
			<output>
				<port id="1" precision="FP32">
					<dim>1</dim>
					<dim>1</dim>
					<dim>384</dim>
				</port>
			</output>
		</layer>
		<layer id="40" name="Constant_4278_compressed" type="Const" version="opset1">
			<data element_type="f16" shape="1, 1, 384" offset="26112" size="768" />
			<output>
				<port id="0" precision="FP16">
					<dim>1</dim>
					<dim>1</dim>
					<dim>384</dim>
				</port>
			</output>
		</layer>
		<layer id="41" name="Constant_4278" type="Convert" version="opset1">
			<data destination_type="f32" />
			<rt_info>
				<attribute name="decompression" version="0" />
			</rt_info>
			<input>
				<port id="0" precision="FP16">
					<dim>1</dim>
					<dim>1</dim>
					<dim>384</dim>
				</port>
			</input>
			<output>
				<port id="1" precision="FP32">
					<dim>1</dim>
					<dim>1</dim>
					<dim>384</dim>
				</port>
			</output>
		</layer>
		<layer id="42" name="Constant_4275_compressed" type="Const" version="opset1">
			<data element_type="f16" shape="1, 1, 384" offset="26880" size="768" />
			<output>
				<port id="0" precision="FP16">
					<dim>1</dim>
					<dim>1</dim>
					<dim>384</dim>
				</port>
			</output>
		</layer>
		<layer id="43" name="Constant_4275" type="Convert" version="opset1">
			<data destination_type="f32" />
			<rt_info>
				<attribute name="decompression" version="0" />
			</rt_info>
			<input>
				<port id="0" precision="FP16">
					<dim>1</dim>
					<dim>1</dim>
					<dim>384</dim>
				</port>
			</input>
			<output>
				<port id="1" precision="FP32">
					<dim>1</dim>
					<dim>1</dim>
					<dim>384</dim>
				</port>
			</output>
		</layer>
		<layer id="44" name="Constant_4274_compressed" type="Const" version="opset1">
			<data element_type="f16" shape="1, 1, 1536" offset="27648" size="3072" />
			<output>
				<port id="0" precision="FP16">
					<dim>1</dim>
					<dim>1</dim>
					<dim>1536</dim>
				</port>
			</output>
		</layer>
		<layer id="45" name="Constant_4274" type="Convert" version="opset1">
			<data destination_type="f32" />
			<rt_info>
				<attribute name="decompression" version="0" />
			</rt_info>
			<input>
				<port id="0" precision="FP16">
					<dim>1</dim>
					<dim>1</dim>
					<dim>1536</dim>
				</port>
			</input>
			<output>
				<port id="1" precision="FP32">
					<dim>1</dim>
					<dim>1</dim>
					<dim>1536</dim>
				</port>
			</output>
		</layer>
		<layer id="46" name="Constant_4271_compressed" type="Const" version="opset1">
			<data element_type="f16" shape="1, 1, 384" offset="30720" size="768" />
			<output>
				<port id="0" precision="FP16">
					<dim>1</dim>
					<dim>1</dim>
					<dim>384</dim>
				</port>
			</output>
		</layer>
		<layer id="47" name="Constant_4271" type="Convert" version="opset1">
			<data destination_type="f32" />
			<rt_info>
				<attribute name="decompression" version="0" />
			</rt_info>
			<input>
				<port id="0" precision="FP16">
					<dim>1</dim>
					<dim>1</dim>
					<dim>384</dim>
				</port>
			</input>
			<output>
				<port id="1" precision="FP32">
					<dim>1</dim>
					<dim>1</dim>
					<dim>384</dim>
				</port>
			</output>
		</layer>
		<layer id="48" name="Constant_4267_compressed" type="Const" version="opset1">
			<data element_type="f16" shape="1, 1, 384" offset="31488" size="768" />
			<output>
				<port id="0" precision="FP16">
					<dim>1</dim>
					<dim>1</dim>
					<dim>384</dim>
				</port>
			</output>
		</layer>
		<layer id="49" name="Constant_4267" type="Convert" version="opset1">
			<data destination_type="f32" />
			<rt_info>
				<attribute name="decompression" version="0" />
			</rt_info>
			<input>
				<port id="0" precision="FP16">
					<dim>1</dim>
					<dim>1</dim>
					<dim>384</dim>
				</port>
			</input>
			<output>
				<port id="1" precision="FP32">
					<dim>1</dim>
					<dim>1</dim>
					<dim>384</dim>
				</port>
			</output>
		</layer>
		<layer id="50" name="0.auto_model.embeddings.word_embeddings.weight_compressed" type="Const" version="opset1">
			<data element_type="f16" shape="30522, 384" offset="32256" size="23440896" />
			<output>
				<port id="0" precision="FP16" names="0.auto_model.embeddings.word_embeddings.weight">
					<dim>30522</dim>
					<dim>384</dim>
				</port>
			</output>
		</layer>
		<layer id="51" name="0.auto_model.embeddings.word_embeddings.weight" type="Convert" version="opset1">
			<data destination_type="f32" />
			<rt_info>
				<attribute name="decompression" version="0" />
			</rt_info>
			<input>
				<port id="0" precision="FP16">
					<dim>30522</dim>
					<dim>384</dim>
				</port>
			</input>
			<output>
				<port id="1" precision="FP32">
					<dim>30522</dim>
					<dim>384</dim>
				</port>
			</output>
		</layer>
		<layer id="52" name="Constant_152" type="Const" version="opset1">
			<data element_type="i64" shape="" offset="23473152" size="8" />
			<output>
				<port id="0" precision="I64" />
			</output>
		</layer>
		<layer id="53" name="/0/auto_model/embeddings/word_embeddings/Gather" type="Gather" version="opset8">
			<data batch_dims="0" />
			<input>
				<port id="0" precision="FP32">
					<dim>30522</dim>
					<dim>384</dim>
				</port>
				<port id="1" precision="I64">
					<dim>-1</dim>
					<dim>-1</dim>
				</port>
				<port id="2" precision="I64" />
			</input>
			<output>
				<port id="3" precision="FP32" names="/0/auto_model/embeddings/word_embeddings/Gather_output_0">
					<dim>-1</dim>
					<dim>-1</dim>
					<dim>384</dim>
				</port>
			</output>
		</layer>
		<layer id="54" name="0.auto_model.embeddings.token_type_embeddings.weight_compressed" type="Const" version="opset1">
			<data element_type="f16" shape="2, 384" offset="23473160" size="1536" />
			<output>
				<port id="0" precision="FP16" names="0.auto_model.embeddings.token_type_embeddings.weight">
					<dim>2</dim>
					<dim>384</dim>
				</port>
			</output>
		</layer>
		<layer id="55" name="0.auto_model.embeddings.token_type_embeddings.weight" type="Convert" version="opset1">
			<data destination_type="f32" />
			<rt_info>
				<attribute name="decompression" version="0" />
			</rt_info>
			<input>
				<port id="0" precision="FP16">
					<dim>2</dim>
					<dim>384</dim>
				</port>
			</input>
			<output>
				<port id="1" precision="FP32">
					<dim>2</dim>
					<dim>384</dim>
				</port>
			</output>
		</layer>
		<layer id="56" name="Constant_246" type="Const" version="opset1">
			<data element_type="i64" shape="1, 512" offset="23474696" size="4096" />
			<output>
				<port id="0" precision="I64" names="onnx::Slice_113">
					<dim>1</dim>
					<dim>512</dim>
				</port>
			</output>
		</layer>
		<layer id="57" name="/0/auto_model/Constant_3" type="Const" version="opset1">
			<data element_type="i64" shape="1" offset="23473152" size="8" />
			<output>
				<port id="0" precision="I64" names="/0/auto_model/Constant_3_output_0">
					<dim>1</dim>
				</port>
			</output>
		</layer>
		<layer id="58" name="ShapeOf_4426" type="ShapeOf" version="opset3">
			<data output_type="i64" />
			<input>
				<port id="0" precision="I64">
					<dim>-1</dim>
					<dim>-1</dim>
				</port>
			</input>
			<output>
				<port id="1" precision="I64" names="/0/auto_model/Concat_output_0,/0/auto_model/Reshape_output_0,/0/auto_model/Shape_1_output_0,/0/auto_model/Shape_output_0">
					<dim>2</dim>
				</port>
			</output>
		</layer>
		<layer id="59" name="Constant_4427" type="Const" version="opset1">
			<data element_type="i64" shape="1" offset="23478792" size="8" />
			<rt_info>
				<attribute name="precise" version="0" />
			</rt_info>
			<output>
				<port id="0" precision="I64">
					<dim>1</dim>
				</port>
			</output>
		</layer>
		<layer id="60" name="Constant_4428" type="Const" version="opset1">
			<data element_type="i64" shape="" offset="23473152" size="8" />
			<rt_info>
				<attribute name="precise" version="0" />
			</rt_info>
			<output>
				<port id="0" precision="I64" />
			</output>
		</layer>
		<layer id="61" name="Gather_4429" type="Gather" version="opset8">
			<data batch_dims="0" />
			<input>
				<port id="0" precision="I64">
					<dim>2</dim>
				</port>
				<port id="1" precision="I64">
					<dim>1</dim>
				</port>
				<port id="2" precision="I64" />
			</input>
			<output>
				<port id="3" precision="I64" names="/0/auto_model/Gather_1_output_0,/0/auto_model/Unsqueeze_2_output_0,/0/auto_model/Unsqueeze_6_output_0,/0/auto_model/Unsqueeze_output_0,/0/auto_model/embeddings/Unsqueeze_output_0">
					<dim>1</dim>
				</port>
			</output>
		</layer>
		<layer id="62" name="/0/auto_model/Constant_5" type="Const" version="opset1">
			<data element_type="i64" shape="1" offset="23478792" size="8" />
			<output>
				<port id="0" precision="I64" names="/0/auto_model/Constant_5_output_0">
					<dim>1</dim>
				</port>
			</output>
		</layer>
		<layer id="63" name="/0/auto_model/Constant_2" type="Const" version="opset1">
			<data element_type="i64" shape="1" offset="23478792" size="8" />
			<output>
				<port id="0" precision="I64" names="/0/auto_model/Constant_2_output_0">
					<dim>1</dim>
				</port>
			</output>
		</layer>
		<layer id="64" name="/0/auto_model/Slice" type="Slice" version="opset8">
			<input>
				<port id="0" precision="I64">
					<dim>1</dim>
					<dim>512</dim>
				</port>
				<port id="1" precision="I64">
					<dim>1</dim>
				</port>
				<port id="2" precision="I64">
					<dim>1</dim>
				</port>
				<port id="3" precision="I64">
					<dim>1</dim>
				</port>
				<port id="4" precision="I64">
					<dim>1</dim>
				</port>
			</input>
			<output>
				<port id="5" precision="I64" names="/0/auto_model/Slice_output_0">
					<dim>1</dim>
					<dim>-1</dim>
				</port>
			</output>
		</layer>
		<layer id="65" name="/0/auto_model/Mul" type="Const" version="opset1">
			<data element_type="i64" shape="2" offset="23478800" size="16" />
			<rt_info>
				<attribute name="precise" version="0" />
			</rt_info>
			<output>
				<port id="0" precision="I64" names="/0/auto_model/Mul_output_0">
					<dim>2</dim>
				</port>
			</output>
		</layer>
		<layer id="66" name="/0/auto_model/Equal" type="Equal" version="opset1">
			<data auto_broadcast="numpy" />
			<input>
				<port id="0" precision="I64">
					<dim>2</dim>
				</port>
				<port id="1" precision="I64">
					<dim>2</dim>
				</port>
			</input>
			<output>
				<port id="2" precision="BOOL" names="/0/auto_model/Equal_output_0">
					<dim>2</dim>
				</port>
			</output>
		</layer>
		<layer id="67" name="/0/auto_model/ConstantOfShape" type="Const" version="opset1">
			<data element_type="i64" shape="2" offset="23478816" size="16" />
			<rt_info>
				<attribute name="precise" version="0" />
			</rt_info>
			<output>
				<port id="0" precision="I64" names="/0/auto_model/ConstantOfShape_output_0">
					<dim>2</dim>
				</port>
			</output>
		</layer>
		<layer id="68" name="/0/auto_model/Where" type="Select" version="opset1">
			<data auto_broadcast="numpy" />
			<input>
				<port id="0" precision="BOOL">
					<dim>2</dim>
				</port>
				<port id="1" precision="I64">
					<dim>2</dim>
				</port>
				<port id="2" precision="I64">
					<dim>2</dim>
				</port>
			</input>
			<output>
				<port id="3" precision="I64" names="/0/auto_model/Where_output_0">
					<dim>2</dim>
				</port>
			</output>
		</layer>
		<layer id="69" name="/0/auto_model/Expand" type="Broadcast" version="opset3">
			<data mode="bidirectional" />
			<input>
				<port id="0" precision="I64">
					<dim>1</dim>
					<dim>-1</dim>
				</port>
				<port id="1" precision="I64">
					<dim>2</dim>
				</port>
			</input>
			<output>
				<port id="2" precision="I64" names="/0/auto_model/Expand_output_0">
					<dim>-1</dim>
					<dim>-1</dim>
				</port>
			</output>
		</layer>
		<layer id="70" name="Constant_154" type="Const" version="opset1">
			<data element_type="i64" shape="" offset="23473152" size="8" />
			<output>
				<port id="0" precision="I64" />
			</output>
		</layer>
		<layer id="71" name="/0/auto_model/embeddings/token_type_embeddings/Gather" type="Gather" version="opset8">
			<data batch_dims="0" />
			<input>
				<port id="0" precision="FP32">
					<dim>2</dim>
					<dim>384</dim>
				</port>
				<port id="1" precision="I64">
					<dim>-1</dim>
					<dim>-1</dim>
				</port>
				<port id="2" precision="I64" />
			</input>
			<output>
				<port id="3" precision="FP32" names="/0/auto_model/embeddings/token_type_embeddings/Gather_output_0">
					<dim>-1</dim>
					<dim>-1</dim>
					<dim>384</dim>
				</port>
			</output>
		</layer>
		<layer id="72" name="/0/auto_model/embeddings/Add" type="Add" version="opset1">
			<data auto_broadcast="numpy" />
			<input>
				<port id="0" precision="FP32">
					<dim>-1</dim>
					<dim>-1</dim>
					<dim>384</dim>
				</port>
				<port id="1" precision="FP32">
					<dim>-1</dim>
					<dim>-1</dim>
					<dim>384</dim>
				</port>
			</input>
			<output>
				<port id="2" precision="FP32" names="/0/auto_model/embeddings/Add_output_0">
					<dim>-1</dim>
					<dim>-1</dim>
					<dim>384</dim>
				</port>
			</output>
		</layer>
		<layer id="73" name="0.auto_model.embeddings.position_embeddings.weight_compressed" type="Const" version="opset1">
			<data element_type="f16" shape="512, 384" offset="23478832" size="393216" />
			<output>
				<port id="0" precision="FP16" names="0.auto_model.embeddings.position_embeddings.weight">
					<dim>512</dim>
					<dim>384</dim>
				</port>
			</output>
		</layer>
		<layer id="74" name="0.auto_model.embeddings.position_embeddings.weight" type="Convert" version="opset1">
			<data destination_type="f32" />
			<rt_info>
				<attribute name="decompression" version="0" />
			</rt_info>
			<input>
				<port id="0" precision="FP16">
					<dim>512</dim>
					<dim>384</dim>
				</port>
			</input>
			<output>
				<port id="1" precision="FP32">
					<dim>512</dim>
					<dim>384</dim>
				</port>
			</output>
		</layer>
		<layer id="75" name="Constant_267" type="Const" version="opset1">
			<data element_type="i64" shape="1, 512" offset="23872048" size="4096" />
			<output>
				<port id="0" precision="I64" names="onnx::Slice_137">
					<dim>1</dim>
					<dim>512</dim>
				</port>
			</output>
		</layer>
		<layer id="76" name="/0/auto_model/embeddings/Constant_1" type="Const" version="opset1">
			<data element_type="i64" shape="1" offset="23473152" size="8" />
			<output>
				<port id="0" precision="I64" names="/0/auto_model/embeddings/Constant_1_output_0">
					<dim>1</dim>
				</port>
			</output>
		</layer>
		<layer id="77" name="/0/auto_model/embeddings/Constant_3" type="Const" version="opset1">
			<data element_type="i64" shape="1" offset="23478792" size="8" />
			<output>
				<port id="0" precision="I64" names="/0/auto_model/embeddings/Constant_3_output_0">
					<dim>1</dim>
				</port>
			</output>
		</layer>
		<layer id="78" name="/0/auto_model/embeddings/Constant" type="Const" version="opset1">
			<data element_type="i64" shape="1" offset="23478792" size="8" />
			<output>
				<port id="0" precision="I64" names="/0/auto_model/embeddings/Constant_output_0">
					<dim>1</dim>
				</port>
			</output>
		</layer>
		<layer id="79" name="/0/auto_model/embeddings/Slice" type="Slice" version="opset8">
			<input>
				<port id="0" precision="I64">
					<dim>1</dim>
					<dim>512</dim>
				</port>
				<port id="1" precision="I64">
					<dim>1</dim>
				</port>
				<port id="2" precision="I64">
					<dim>1</dim>
				</port>
				<port id="3" precision="I64">
					<dim>1</dim>
				</port>
				<port id="4" precision="I64">
					<dim>1</dim>
				</port>
			</input>
			<output>
				<port id="5" precision="I64" names="/0/auto_model/embeddings/Slice_output_0">
					<dim>1</dim>
					<dim>-1</dim>
				</port>
			</output>
		</layer>
		<layer id="80" name="Constant_157" type="Const" version="opset1">
			<data element_type="i64" shape="" offset="23473152" size="8" />
			<output>
				<port id="0" precision="I64" />
			</output>
		</layer>
		<layer id="81" name="/0/auto_model/embeddings/position_embeddings/Gather" type="Gather" version="opset8">
			<data batch_dims="0" />
			<input>
				<port id="0" precision="FP32">
					<dim>512</dim>
					<dim>384</dim>
				</port>
				<port id="1" precision="I64">
					<dim>1</dim>
					<dim>-1</dim>
				</port>
				<port id="2" precision="I64" />
			</input>
			<output>
				<port id="3" precision="FP32" names="/0/auto_model/embeddings/position_embeddings/Gather_output_0">
					<dim>1</dim>
					<dim>-1</dim>
					<dim>384</dim>
				</port>
			</output>
		</layer>
		<layer id="82" name="/0/auto_model/embeddings/Add_1" type="Add" version="opset1">
			<data auto_broadcast="numpy" />
			<input>
				<port id="0" precision="FP32">
					<dim>-1</dim>
					<dim>-1</dim>
					<dim>384</dim>
				</port>
				<port id="1" precision="FP32">
					<dim>1</dim>
					<dim>-1</dim>
					<dim>384</dim>
				</port>
			</input>
			<output>
				<port id="2" precision="FP32" names="/0/auto_model/embeddings/Add_1_output_0">
					<dim>-1</dim>
					<dim>-1</dim>
					<dim>384</dim>
				</port>
			</output>
		</layer>
		<layer id="83" name="Constant_160" type="Const" version="opset1">
			<data element_type="i64" shape="1" offset="23876144" size="8" />
			<output>
				<port id="0" precision="I64">
					<dim>1</dim>
				</port>
			</output>
		</layer>
		<layer id="84" name="/0/auto_model/embeddings/LayerNorm/Div" type="MVN" version="opset6">
			<data eps="9.999999960041972e-13" normalize_variance="true" eps_mode="INSIDE_SQRT" />
			<input>
				<port id="0" precision="FP32">
					<dim>-1</dim>
					<dim>-1</dim>
					<dim>384</dim>
				</port>
				<port id="1" precision="I64">
					<dim>1</dim>
				</port>
			</input>
			<output>
				<port id="2" precision="FP32" names="/0/auto_model/embeddings/LayerNorm/Div_output_0">
					<dim>-1</dim>
					<dim>-1</dim>
					<dim>384</dim>
				</port>
			</output>
		</layer>
		<layer id="85" name="Constant_4265_compressed" type="Const" version="opset1">
			<data element_type="f16" shape="1, 1, 384" offset="23876152" size="768" />
			<output>
				<port id="0" precision="FP16">
					<dim>1</dim>
					<dim>1</dim>
					<dim>384</dim>
				</port>
			</output>
		</layer>
		<layer id="86" name="Constant_4265" type="Convert" version="opset1">
			<data destination_type="f32" />
			<rt_info>
				<attribute name="decompression" version="0" />
			</rt_info>
			<input>
				<port id="0" precision="FP16">
					<dim>1</dim>
					<dim>1</dim>
					<dim>384</dim>
				</port>
			</input>
			<output>
				<port id="1" precision="FP32">
					<dim>1</dim>
					<dim>1</dim>
					<dim>384</dim>
				</port>
			</output>
		</layer>
		<layer id="87" name="/0/auto_model/embeddings/LayerNorm/Mul" type="Multiply" version="opset1">
			<data auto_broadcast="numpy" />
			<input>
				<port id="0" precision="FP32">
					<dim>-1</dim>
					<dim>-1</dim>
					<dim>384</dim>
				</port>
				<port id="1" precision="FP32">
					<dim>1</dim>
					<dim>1</dim>
					<dim>384</dim>
				</port>
			</input>
			<output>
				<port id="2" precision="FP32" names="/0/auto_model/embeddings/LayerNorm/Mul_output_0">
					<dim>-1</dim>
					<dim>-1</dim>
					<dim>384</dim>
				</port>
			</output>
		</layer>
		<layer id="88" name="Constant_4266_compressed" type="Const" version="opset1">
			<data element_type="f16" shape="1, 1, 384" offset="23876920" size="768" />
			<output>
				<port id="0" precision="FP16">
					<dim>1</dim>
					<dim>1</dim>
					<dim>384</dim>
				</port>
			</output>
		</layer>
		<layer id="89" name="Constant_4266" type="Convert" version="opset1">
			<data destination_type="f32" />
			<rt_info>
				<attribute name="decompression" version="0" />
			</rt_info>
			<input>
				<port id="0" precision="FP16">
					<dim>1</dim>
					<dim>1</dim>
					<dim>384</dim>
				</port>
			</input>
			<output>
				<port id="1" precision="FP32">
					<dim>1</dim>
					<dim>1</dim>
					<dim>384</dim>
				</port>
			</output>
		</layer>
		<layer id="90" name="/0/auto_model/embeddings/LayerNorm/Add_1" type="Add" version="opset1">
			<data auto_broadcast="numpy" />
			<input>
				<port id="0" precision="FP32">
					<dim>-1</dim>
					<dim>-1</dim>
					<dim>384</dim>
				</port>
				<port id="1" precision="FP32">
					<dim>1</dim>
					<dim>1</dim>
					<dim>384</dim>
				</port>
			</input>
			<output>
				<port id="2" precision="FP32" names="/0/auto_model/embeddings/LayerNorm/Add_1_output_0">
					<dim>-1</dim>
					<dim>-1</dim>
					<dim>384</dim>
				</port>
			</output>
		</layer>
		<layer id="91" name="Transpose_3698_compressed" type="Const" version="opset1">
			<data element_type="f16" shape="384, 384" offset="23877688" size="294912" />
			<output>
				<port id="0" precision="FP16">
					<dim>384</dim>
					<dim>384</dim>
				</port>
			</output>
		</layer>
		<layer id="92" name="Transpose_3698" type="Convert" version="opset1">
			<data destination_type="f32" />
			<rt_info>
				<attribute name="decompression" version="0" />
			</rt_info>
			<input>
				<port id="0" precision="FP16">
					<dim>384</dim>
					<dim>384</dim>
				</port>
			</input>
			<output>
				<port id="1" precision="FP32">
					<dim>384</dim>
					<dim>384</dim>
				</port>
			</output>
		</layer>
		<layer id="93" name="/0/auto_model/encoder/layer.0/attention/self/query/MatMul" type="MatMul" version="opset1">
			<data transpose_a="false" transpose_b="true" />
			<input>
				<port id="0" precision="FP32">
					<dim>-1</dim>
					<dim>-1</dim>
					<dim>384</dim>
				</port>
				<port id="1" precision="FP32">
					<dim>384</dim>
					<dim>384</dim>
				</port>
			</input>
			<output>
				<port id="2" precision="FP32" names="/0/auto_model/encoder/layer.0/attention/self/query/MatMul_output_0">
					<dim>-1</dim>
					<dim>-1</dim>
					<dim>384</dim>
				</port>
			</output>
		</layer>
		<layer id="94" name="/0/auto_model/encoder/layer.0/attention/self/query/Add" type="Add" version="opset1">
			<data auto_broadcast="numpy" />
			<input>
				<port id="0" precision="FP32">
					<dim>1</dim>
					<dim>1</dim>
					<dim>384</dim>
				</port>
				<port id="1" precision="FP32">
					<dim>-1</dim>
					<dim>-1</dim>
					<dim>384</dim>
				</port>
			</input>
			<output>
				<port id="2" precision="FP32" names="/0/auto_model/encoder/layer.0/attention/self/query/Add_output_0">
					<dim>-1</dim>
					<dim>-1</dim>
					<dim>384</dim>
				</port>
			</output>
		</layer>
		<layer id="95" name="/0/auto_model/encoder/layer.0/attention/self/Concat" type="Const" version="opset1">
			<data element_type="i64" shape="4" offset="24172600" size="32" />
			<rt_info>
				<attribute name="precise" version="0" />
			</rt_info>
			<output>
				<port id="0" precision="I64">
					<dim>4</dim>
				</port>
			</output>
		</layer>
		<layer id="96" name="/0/auto_model/encoder/layer.0/attention/self/Reshape" type="Reshape" version="opset1">
			<data special_zero="true" />
			<input>
				<port id="0" precision="FP32">
					<dim>-1</dim>
					<dim>-1</dim>
					<dim>384</dim>
				</port>
				<port id="1" precision="I64">
					<dim>4</dim>
				</port>
			</input>
			<output>
				<port id="2" precision="FP32" names="/0/auto_model/encoder/layer.0/attention/self/Reshape_output_0">
					<dim>-1</dim>
					<dim>-1</dim>
					<dim>12</dim>
					<dim>32</dim>
				</port>
			</output>
		</layer>
		<layer id="97" name="Constant_247" type="Const" version="opset1">
			<data element_type="i64" shape="4" offset="24172632" size="32" />
			<output>
				<port id="0" precision="I64">
					<dim>4</dim>
				</port>
			</output>
		</layer>
		<layer id="98" name="/0/auto_model/encoder/layer.0/attention/self/Transpose" type="Transpose" version="opset1">
			<input>
				<port id="0" precision="FP32">
					<dim>-1</dim>
					<dim>-1</dim>
					<dim>12</dim>
					<dim>32</dim>
				</port>
				<port id="1" precision="I64">
					<dim>4</dim>
				</port>
			</input>
			<output>
				<port id="2" precision="FP32" names="/0/auto_model/encoder/layer.0/attention/self/Transpose_output_0">
					<dim>-1</dim>
					<dim>12</dim>
					<dim>-1</dim>
					<dim>32</dim>
				</port>
			</output>
		</layer>
		<layer id="99" name="/0/auto_model/encoder/layer.0/attention/self/Constant_16_compressed" type="Const" version="opset1">
			<data element_type="f16" shape="1" offset="24172664" size="2" />
			<output>
				<port id="0" precision="FP16" names="/0/auto_model/encoder/layer.0/attention/self/Constant_16_output_0">
					<dim>1</dim>
				</port>
			</output>
		</layer>
		<layer id="100" name="/0/auto_model/encoder/layer.0/attention/self/Constant_16" type="Convert" version="opset1">
			<data destination_type="f32" />
			<rt_info>
				<attribute name="decompression" version="0" />
			</rt_info>
			<input>
				<port id="0" precision="FP16">
					<dim>1</dim>
				</port>
			</input>
			<output>
				<port id="1" precision="FP32">
					<dim>1</dim>
				</port>
			</output>
		</layer>
		<layer id="101" name="/0/auto_model/encoder/layer.0/attention/self/Shape_8" type="ShapeOf" version="opset3">
			<data output_type="i64" />
			<input>
				<port id="0" precision="FP32">
					<dim>-1</dim>
					<dim>12</dim>
					<dim>-1</dim>
					<dim>32</dim>
				</port>
			</input>
			<output>
				<port id="1" precision="I64" names="/0/auto_model/encoder/layer.0/attention/self/Shape_8_output_0">
					<dim>4</dim>
				</port>
			</output>
		</layer>
		<layer id="102" name="/0/auto_model/encoder/layer.0/attention/self/Constant_14" type="Const" version="opset1">
			<data element_type="i64" shape="1" offset="23876144" size="8" />
			<output>
				<port id="0" precision="I64" names="/0/auto_model/encoder/layer.0/attention/self/Constant_14_output_0">
					<dim>1</dim>
				</port>
			</output>
		</layer>
		<layer id="103" name="/0/auto_model/encoder/layer.0/attention/self/Constant_15" type="Const" version="opset1">
			<data element_type="i64" shape="1" offset="24172666" size="8" />
			<output>
				<port id="0" precision="I64" names="/0/auto_model/encoder/layer.0/attention/self/Constant_15_output_0">
					<dim>1</dim>
				</port>
			</output>
		</layer>
		<layer id="104" name="Broadcast_292" type="Const" version="opset1">
			<data element_type="i64" shape="1" offset="23478792" size="8" />
			<output>
				<port id="0" precision="I64">
					<dim>1</dim>
				</port>
			</output>
		</layer>
		<layer id="105" name="Constant_296" type="Const" version="opset1">
			<data element_type="i64" shape="1" offset="23473152" size="8" />
			<output>
				<port id="0" precision="I64">
					<dim>1</dim>
				</port>
			</output>
		</layer>
		<layer id="106" name="/0/auto_model/encoder/layer.0/attention/self/Slice" type="Slice" version="opset8">
			<input>
				<port id="0" precision="I64">
					<dim>4</dim>
				</port>
				<port id="1" precision="I64">
					<dim>1</dim>
				</port>
				<port id="2" precision="I64">
					<dim>1</dim>
				</port>
				<port id="3" precision="I64">
					<dim>1</dim>
				</port>
				<port id="4" precision="I64">
					<dim>1</dim>
				</port>
			</input>
			<output>
				<port id="5" precision="I64" names="/0/auto_model/encoder/layer.0/attention/self/Slice_output_0">
					<dim>1</dim>
				</port>
			</output>
		</layer>
		<layer id="107" name="/0/auto_model/encoder/layer.0/attention/self/Cast" type="Convert" version="opset1">
			<data destination_type="f32" />
			<input>
				<port id="0" precision="I64">
					<dim>1</dim>
				</port>
			</input>
			<output>
				<port id="1" precision="FP32" names="/0/auto_model/encoder/layer.0/attention/self/Cast_output_0">
					<dim>1</dim>
				</port>
			</output>
		</layer>
		<layer id="108" name="/0/auto_model/encoder/layer.0/attention/self/Sqrt" type="Sqrt" version="opset1">
			<input>
				<port id="0" precision="FP32">
					<dim>1</dim>
				</port>
			</input>
			<output>
				<port id="1" precision="FP32" names="/0/auto_model/encoder/layer.0/attention/self/Sqrt_output_0">
					<dim>1</dim>
				</port>
			</output>
		</layer>
		<layer id="109" name="/0/auto_model/encoder/layer.0/attention/self/Div" type="Divide" version="opset1">
			<data auto_broadcast="numpy" m_pythondiv="true" />
			<input>
				<port id="0" precision="FP32">
					<dim>1</dim>
				</port>
				<port id="1" precision="FP32">
					<dim>1</dim>
				</port>
			</input>
			<output>
				<port id="2" precision="FP32" names="/0/auto_model/encoder/layer.0/attention/self/Cast_1_output_0,/0/auto_model/encoder/layer.0/attention/self/Div_output_0">
					<dim>1</dim>
				</port>
			</output>
		</layer>
		<layer id="110" name="/0/auto_model/encoder/layer.0/attention/self/Sqrt_1" type="Sqrt" version="opset1">
			<input>
				<port id="0" precision="FP32">
					<dim>1</dim>
				</port>
			</input>
			<output>
				<port id="1" precision="FP32" names="/0/auto_model/encoder/layer.0/attention/self/Sqrt_1_output_0,/0/auto_model/encoder/layer.0/attention/self/Sqrt_2_output_0">
					<dim>1</dim>
				</port>
			</output>
		</layer>
		<layer id="111" name="/0/auto_model/encoder/layer.0/attention/self/Mul" type="Multiply" version="opset1">
			<data auto_broadcast="numpy" />
			<input>
				<port id="0" precision="FP32">
					<dim>-1</dim>
					<dim>12</dim>
					<dim>-1</dim>
					<dim>32</dim>
				</port>
				<port id="1" precision="FP32">
					<dim>1</dim>
				</port>
			</input>
			<output>
				<port id="2" precision="FP32" names="/0/auto_model/encoder/layer.0/attention/self/Mul_output_0">
					<dim>-1</dim>
					<dim>12</dim>
					<dim>-1</dim>
					<dim>32</dim>
				</port>
			</output>
		</layer>
		<layer id="112" name="Constant_4268_compressed" type="Const" version="opset1">
			<data element_type="f16" shape="1, 1, 384" offset="24172674" size="768" />
			<output>
				<port id="0" precision="FP16">
					<dim>1</dim>
					<dim>1</dim>
					<dim>384</dim>
				</port>
			</output>
		</layer>
		<layer id="113" name="Constant_4268" type="Convert" version="opset1">
			<data destination_type="f32" />
			<rt_info>
				<attribute name="decompression" version="0" />
			</rt_info>
			<input>
				<port id="0" precision="FP16">
					<dim>1</dim>
					<dim>1</dim>
					<dim>384</dim>
				</port>
			</input>
			<output>
				<port id="1" precision="FP32">
					<dim>1</dim>
					<dim>1</dim>
					<dim>384</dim>
				</port>
			</output>
		</layer>
		<layer id="114" name="Transpose_3707_compressed" type="Const" version="opset1">
			<data element_type="f16" shape="384, 384" offset="24173442" size="294912" />
			<output>
				<port id="0" precision="FP16">
					<dim>384</dim>
					<dim>384</dim>
				</port>
			</output>
		</layer>
		<layer id="115" name="Transpose_3707" type="Convert" version="opset1">
			<data destination_type="f32" />
			<rt_info>
				<attribute name="decompression" version="0" />
			</rt_info>
			<input>
				<port id="0" precision="FP16">
					<dim>384</dim>
					<dim>384</dim>
				</port>
			</input>
			<output>
				<port id="1" precision="FP32">
					<dim>384</dim>
					<dim>384</dim>
				</port>
			</output>
		</layer>
		<layer id="116" name="/0/auto_model/encoder/layer.0/attention/self/key/MatMul" type="MatMul" version="opset1">
			<data transpose_a="false" transpose_b="true" />
			<input>
				<port id="0" precision="FP32">
					<dim>-1</dim>
					<dim>-1</dim>
					<dim>384</dim>
				</port>
				<port id="1" precision="FP32">
					<dim>384</dim>
					<dim>384</dim>
				</port>
			</input>
			<output>
				<port id="2" precision="FP32" names="/0/auto_model/encoder/layer.0/attention/self/key/MatMul_output_0">
					<dim>-1</dim>
					<dim>-1</dim>
					<dim>384</dim>
				</port>
			</output>
		</layer>
		<layer id="117" name="/0/auto_model/encoder/layer.0/attention/self/key/Add" type="Add" version="opset1">
			<data auto_broadcast="numpy" />
			<input>
				<port id="0" precision="FP32">
					<dim>1</dim>
					<dim>1</dim>
					<dim>384</dim>
				</port>
				<port id="1" precision="FP32">
					<dim>-1</dim>
					<dim>-1</dim>
					<dim>384</dim>
				</port>
			</input>
			<output>
				<port id="2" precision="FP32" names="/0/auto_model/encoder/layer.0/attention/self/key/Add_output_0">
					<dim>-1</dim>
					<dim>-1</dim>
					<dim>384</dim>
				</port>
			</output>
		</layer>
		<layer id="118" name="/0/auto_model/encoder/layer.0/attention/self/Concat_1" type="Const" version="opset1">
			<data element_type="i64" shape="4" offset="24172600" size="32" />
			<rt_info>
				<attribute name="precise" version="0" />
			</rt_info>
			<output>
				<port id="0" precision="I64">
					<dim>4</dim>
				</port>
			</output>
		</layer>
		<layer id="119" name="/0/auto_model/encoder/layer.0/attention/self/Reshape_1" type="Reshape" version="opset1">
			<data special_zero="true" />
			<input>
				<port id="0" precision="FP32">
					<dim>-1</dim>
					<dim>-1</dim>
					<dim>384</dim>
				</port>
				<port id="1" precision="I64">
					<dim>4</dim>
				</port>
			</input>
			<output>
				<port id="2" precision="FP32" names="/0/auto_model/encoder/layer.0/attention/self/Reshape_1_output_0">
					<dim>-1</dim>
					<dim>-1</dim>
					<dim>12</dim>
					<dim>32</dim>
				</port>
			</output>
		</layer>
		<layer id="120" name="Constant_303" type="Const" version="opset1">
			<data element_type="i64" shape="4" offset="24468354" size="32" />
			<output>
				<port id="0" precision="I64">
					<dim>4</dim>
				</port>
			</output>
		</layer>
		<layer id="121" name="/0/auto_model/encoder/layer.0/attention/self/Transpose_2" type="Transpose" version="opset1">
			<input>
				<port id="0" precision="FP32">
					<dim>-1</dim>
					<dim>-1</dim>
					<dim>12</dim>
					<dim>32</dim>
				</port>
				<port id="1" precision="I64">
					<dim>4</dim>
				</port>
			</input>
			<output>
				<port id="2" precision="FP32" names="/0/auto_model/encoder/layer.0/attention/self/Transpose_2_output_0">
					<dim>-1</dim>
					<dim>12</dim>
					<dim>32</dim>
					<dim>-1</dim>
				</port>
			</output>
		</layer>
		<layer id="122" name="/0/auto_model/encoder/layer.0/attention/self/Mul_1" type="Multiply" version="opset1">
			<data auto_broadcast="numpy" />
			<input>
				<port id="0" precision="FP32">
					<dim>-1</dim>
					<dim>12</dim>
					<dim>32</dim>
					<dim>-1</dim>
				</port>
				<port id="1" precision="FP32">
					<dim>1</dim>
				</port>
			</input>
			<output>
				<port id="2" precision="FP32" names="/0/auto_model/encoder/layer.0/attention/self/Mul_1_output_0">
					<dim>-1</dim>
					<dim>12</dim>
					<dim>32</dim>
					<dim>-1</dim>
				</port>
			</output>
		</layer>
		<layer id="123" name="/0/auto_model/encoder/layer.0/attention/self/MatMul" type="MatMul" version="opset1">
			<data transpose_a="false" transpose_b="false" />
			<input>
				<port id="0" precision="FP32">
					<dim>-1</dim>
					<dim>12</dim>
					<dim>-1</dim>
					<dim>32</dim>
				</port>
				<port id="1" precision="FP32">
					<dim>-1</dim>
					<dim>12</dim>
					<dim>32</dim>
					<dim>-1</dim>
				</port>
			</input>
			<output>
				<port id="2" precision="FP32" names="/0/auto_model/encoder/layer.0/attention/self/MatMul_output_0">
					<dim>-1</dim>
					<dim>12</dim>
					<dim>-1</dim>
					<dim>-1</dim>
				</port>
			</output>
		</layer>
		<layer id="124" name="Constant_4269_compressed" type="Const" version="opset1">
			<data element_type="f16" shape="1, 1, 1, 1" offset="24172664" size="2" />
			<output>
				<port id="0" precision="FP16">
					<dim>1</dim>
					<dim>1</dim>
					<dim>1</dim>
					<dim>1</dim>
				</port>
			</output>
		</layer>
		<layer id="125" name="Constant_4269" type="Convert" version="opset1">
			<data destination_type="f32" />
			<rt_info>
				<attribute name="decompression" version="0" />
			</rt_info>
			<input>
				<port id="0" precision="FP16">
					<dim>1</dim>
					<dim>1</dim>
					<dim>1</dim>
					<dim>1</dim>
				</port>
			</input>
			<output>
				<port id="1" precision="FP32">
					<dim>1</dim>
					<dim>1</dim>
					<dim>1</dim>
					<dim>1</dim>
				</port>
			</output>
		</layer>
		<layer id="126" name="/0/auto_model/Constant_12" type="Const" version="opset1">
			<data element_type="i64" shape="1" offset="23478792" size="8" />
			<output>
				<port id="0" precision="I64" names="/0/auto_model/Constant_12_output_0">
					<dim>1</dim>
				</port>
			</output>
		</layer>
		<layer id="127" name="/0/auto_model/Unsqueeze_3" type="Unsqueeze" version="opset1">
			<input>
				<port id="0" precision="I64">
					<dim>-1</dim>
					<dim>-1</dim>
				</port>
				<port id="1" precision="I64">
					<dim>1</dim>
				</port>
			</input>
			<output>
				<port id="2" precision="I64" names="/0/auto_model/Unsqueeze_3_output_0">
					<dim>-1</dim>
					<dim>1</dim>
					<dim>-1</dim>
				</port>
			</output>
		</layer>
		<layer id="128" name="/0/auto_model/Constant_13" type="Const" version="opset1">
			<data element_type="i64" shape="1" offset="24468386" size="8" />
			<output>
				<port id="0" precision="I64" names="/0/auto_model/Constant_13_output_0">
					<dim>1</dim>
				</port>
			</output>
		</layer>
		<layer id="129" name="/0/auto_model/Unsqueeze_4" type="Unsqueeze" version="opset1">
			<input>
				<port id="0" precision="I64">
					<dim>-1</dim>
					<dim>1</dim>
					<dim>-1</dim>
				</port>
				<port id="1" precision="I64">
					<dim>1</dim>
				</port>
			</input>
			<output>
				<port id="2" precision="I64" names="/0/auto_model/Unsqueeze_4_output_0">
					<dim>-1</dim>
					<dim>1</dim>
					<dim>1</dim>
					<dim>-1</dim>
				</port>
			</output>
		</layer>
		<layer id="130" name="ShapeOf_4432" type="ShapeOf" version="opset3">
			<data output_type="i64" />
			<input>
				<port id="0" precision="I64">
					<dim>-1</dim>
					<dim>-1</dim>
				</port>
			</input>
			<output>
				<port id="1" precision="I64">
					<dim>2</dim>
				</port>
			</output>
		</layer>
		<layer id="131" name="Constant_4433" type="Const" version="opset1">
			<data element_type="i64" shape="1" offset="23473152" size="8" />
			<rt_info>
				<attribute name="precise" version="0" />
			</rt_info>
			<output>
				<port id="0" precision="I64">
					<dim>1</dim>
				</port>
			</output>
		</layer>
		<layer id="132" name="Constant_4434" type="Const" version="opset1">
			<data element_type="i64" shape="" offset="23473152" size="8" />
			<rt_info>
				<attribute name="precise" version="0" />
			</rt_info>
			<output>
				<port id="0" precision="I64" />
			</output>
		</layer>
		<layer id="133" name="Gather_4435" type="Gather" version="opset8">
			<data batch_dims="0" />
			<input>
				<port id="0" precision="I64">
					<dim>2</dim>
				</port>
				<port id="1" precision="I64">
					<dim>1</dim>
				</port>
				<port id="2" precision="I64" />
			</input>
			<output>
				<port id="3" precision="I64" names="/0/auto_model/Gather_2_output_0,/0/auto_model/Unsqueeze_5_output_0">
					<dim>1</dim>
				</port>
			</output>
		</layer>
		<layer id="134" name="/0/auto_model/Constant_15" type="Const" version="opset1">
			<data element_type="i64" shape="1" offset="23478792" size="8" />
			<rt_info>
				<attribute name="precise" version="0" />
			</rt_info>
			<output>
				<port id="0" precision="I64" names="/0/auto_model/Constant_15_output_0">
					<dim>1</dim>
				</port>
			</output>
		</layer>
		<layer id="135" name="Constant_4437" type="Const" version="opset1">
			<data element_type="i64" shape="1" offset="23478792" size="8" />
			<rt_info>
				<attribute name="precise" version="0" />
			</rt_info>
			<output>
				<port id="0" precision="I64">
					<dim>1</dim>
				</port>
			</output>
		</layer>
		<layer id="136" name="Constant_4438" type="Const" version="opset1">
			<data element_type="i64" shape="" offset="23473152" size="8" />
			<rt_info>
				<attribute name="precise" version="0" />
			</rt_info>
			<output>
				<port id="0" precision="I64" />
			</output>
		</layer>
		<layer id="137" name="Gather_4439" type="Gather" version="opset8">
			<data batch_dims="0" />
			<input>
				<port id="0" precision="I64">
					<dim>2</dim>
				</port>
				<port id="1" precision="I64">
					<dim>1</dim>
				</port>
				<port id="2" precision="I64" />
			</input>
			<output>
				<port id="3" precision="I64" names="/0/auto_model/Gather_3_output_0,/0/auto_model/Unsqueeze_7_output_0">
					<dim>1</dim>
				</port>
			</output>
		</layer>
		<layer id="138" name="/0/auto_model/Concat_1" type="Concat" version="opset1">
			<data axis="0" />
			<input>
				<port id="0" precision="I64">
					<dim>1</dim>
				</port>
				<port id="1" precision="I64">
					<dim>1</dim>
				</port>
				<port id="2" precision="I64">
					<dim>1</dim>
				</port>
				<port id="3" precision="I64">
					<dim>1</dim>
				</port>
			</input>
			<output>
				<port id="4" precision="I64" names="/0/auto_model/Concat_1_output_0,/0/auto_model/Reshape_1_output_0">
					<dim>4</dim>
				</port>
			</output>
		</layer>
		<layer id="139" name="/0/auto_model/Mul_1" type="Const" version="opset1">
			<data element_type="i64" shape="4" offset="24468394" size="32" />
			<rt_info>
				<attribute name="precise" version="0" />
			</rt_info>
			<output>
				<port id="0" precision="I64" names="/0/auto_model/Mul_1_output_0">
					<dim>4</dim>
				</port>
			</output>
		</layer>
		<layer id="140" name="/0/auto_model/Equal_1" type="Equal" version="opset1">
			<data auto_broadcast="numpy" />
			<input>
				<port id="0" precision="I64">
					<dim>4</dim>
				</port>
				<port id="1" precision="I64">
					<dim>4</dim>
				</port>
			</input>
			<output>
				<port id="2" precision="BOOL" names="/0/auto_model/Equal_1_output_0">
					<dim>4</dim>
				</port>
			</output>
		</layer>
		<layer id="141" name="/0/auto_model/ConstantOfShape_1" type="Const" version="opset1">
			<data element_type="i64" shape="4" offset="24468426" size="32" />
			<rt_info>
				<attribute name="precise" version="0" />
			</rt_info>
			<output>
				<port id="0" precision="I64" names="/0/auto_model/ConstantOfShape_1_output_0">
					<dim>4</dim>
				</port>
			</output>
		</layer>
		<layer id="142" name="/0/auto_model/Where_1" type="Select" version="opset1">
			<data auto_broadcast="numpy" />
			<input>
				<port id="0" precision="BOOL">
					<dim>4</dim>
				</port>
				<port id="1" precision="I64">
					<dim>4</dim>
				</port>
				<port id="2" precision="I64">
					<dim>4</dim>
				</port>
			</input>
			<output>
				<port id="3" precision="I64" names="/0/auto_model/Where_1_output_0">
					<dim>4</dim>
				</port>
			</output>
		</layer>
		<layer id="143" name="/0/auto_model/Expand_1" type="Broadcast" version="opset3">
			<data mode="bidirectional" />
			<input>
				<port id="0" precision="I64">
					<dim>-1</dim>
					<dim>1</dim>
					<dim>1</dim>
					<dim>-1</dim>
				</port>
				<port id="1" precision="I64">
					<dim>4</dim>
				</port>
			</input>
			<output>
				<port id="2" precision="I64" names="/0/auto_model/Expand_1_output_0">
					<dim>-1</dim>
					<dim>1</dim>
					<dim>-1</dim>
					<dim>-1</dim>
				</port>
			</output>
		</layer>
		<layer id="144" name="/0/auto_model/Cast" type="Convert" version="opset1">
			<data destination_type="f32" />
			<input>
				<port id="0" precision="I64">
					<dim>-1</dim>
					<dim>1</dim>
					<dim>-1</dim>
					<dim>-1</dim>
				</port>
			</input>
			<output>
				<port id="1" precision="FP32" names="/0/auto_model/Cast_output_0">
					<dim>-1</dim>
					<dim>1</dim>
					<dim>-1</dim>
					<dim>-1</dim>
				</port>
			</output>
		</layer>
		<layer id="145" name="/0/auto_model/Sub" type="Subtract" version="opset1">
			<data auto_broadcast="numpy" />
			<input>
				<port id="0" precision="FP32">
					<dim>1</dim>
					<dim>1</dim>
					<dim>1</dim>
					<dim>1</dim>
				</port>
				<port id="1" precision="FP32">
					<dim>-1</dim>
					<dim>1</dim>
					<dim>-1</dim>
					<dim>-1</dim>
				</port>
			</input>
			<output>
				<port id="2" precision="FP32" names="/0/auto_model/Sub_output_0">
					<dim>-1</dim>
					<dim>1</dim>
					<dim>-1</dim>
					<dim>-1</dim>
				</port>
			</output>
		</layer>
		<layer id="146" name="/0/auto_model/Cast_1" type="Convert" version="opset1">
			<data destination_type="boolean" />
			<input>
				<port id="0" precision="FP32">
					<dim>-1</dim>
					<dim>1</dim>
					<dim>-1</dim>
					<dim>-1</dim>
				</port>
			</input>
			<output>
				<port id="1" precision="BOOL" names="/0/auto_model/Cast_1_output_0,/0/auto_model/Cast_2_output_0">
					<dim>-1</dim>
					<dim>1</dim>
					<dim>-1</dim>
					<dim>-1</dim>
				</port>
			</output>
		</layer>
		<layer id="147" name="/0/auto_model/Constant_21" type="Const" version="opset1">
			<data element_type="f32" shape="" offset="24468458" size="4" />
			<output>
				<port id="0" precision="FP32" names="/0/auto_model/Constant_21_output_0" />
			</output>
		</layer>
		<layer id="148" name="/0/auto_model/Where_2" type="Select" version="opset1">
			<data auto_broadcast="numpy" />
			<input>
				<port id="0" precision="BOOL">
					<dim>-1</dim>
					<dim>1</dim>
					<dim>-1</dim>
					<dim>-1</dim>
				</port>
				<port id="1" precision="FP32" />
				<port id="2" precision="FP32">
					<dim>-1</dim>
					<dim>1</dim>
					<dim>-1</dim>
					<dim>-1</dim>
				</port>
			</input>
			<output>
				<port id="3" precision="FP32" names="/0/auto_model/Where_2_output_0">
					<dim>-1</dim>
					<dim>1</dim>
					<dim>-1</dim>
					<dim>-1</dim>
				</port>
			</output>
		</layer>
		<layer id="149" name="/0/auto_model/encoder/layer.0/attention/self/Add" type="Add" version="opset1">
			<data auto_broadcast="numpy" />
			<input>
				<port id="0" precision="FP32">
					<dim>-1</dim>
					<dim>12</dim>
					<dim>-1</dim>
					<dim>-1</dim>
				</port>
				<port id="1" precision="FP32">
					<dim>-1</dim>
					<dim>1</dim>
					<dim>-1</dim>
					<dim>-1</dim>
				</port>
			</input>
			<output>
				<port id="2" precision="FP32" names="/0/auto_model/encoder/layer.0/attention/self/Add_output_0">
					<dim>-1</dim>
					<dim>12</dim>
					<dim>-1</dim>
					<dim>-1</dim>
				</port>
			</output>
		</layer>
		<layer id="150" name="/0/auto_model/encoder/layer.0/attention/self/Softmax" type="SoftMax" version="opset8">
			<data axis="-1" />
			<input>
				<port id="0" precision="FP32">
					<dim>-1</dim>
					<dim>12</dim>
					<dim>-1</dim>
					<dim>-1</dim>
				</port>
			</input>
			<output>
				<port id="1" precision="FP32" names="/0/auto_model/encoder/layer.0/attention/self/Softmax_output_0">
					<dim>-1</dim>
					<dim>12</dim>
					<dim>-1</dim>
					<dim>-1</dim>
				</port>
			</output>
		</layer>
		<layer id="151" name="Constant_4270_compressed" type="Const" version="opset1">
			<data element_type="f16" shape="1, 1, 384" offset="24468462" size="768" />
			<output>
				<port id="0" precision="FP16">
					<dim>1</dim>
					<dim>1</dim>
					<dim>384</dim>
				</port>
			</output>
		</layer>
		<layer id="152" name="Constant_4270" type="Convert" version="opset1">
			<data destination_type="f32" />
			<rt_info>
				<attribute name="decompression" version="0" />
			</rt_info>
			<input>
				<port id="0" precision="FP16">
					<dim>1</dim>
					<dim>1</dim>
					<dim>384</dim>
				</port>
			</input>
			<output>
				<port id="1" precision="FP32">
					<dim>1</dim>
					<dim>1</dim>
					<dim>384</dim>
				</port>
			</output>
		</layer>
		<layer id="153" name="Transpose_3718_compressed" type="Const" version="opset1">
			<data element_type="f16" shape="384, 384" offset="24469230" size="294912" />
			<output>
				<port id="0" precision="FP16">
					<dim>384</dim>
					<dim>384</dim>
				</port>
			</output>
		</layer>
		<layer id="154" name="Transpose_3718" type="Convert" version="opset1">
			<data destination_type="f32" />
			<rt_info>
				<attribute name="decompression" version="0" />
			</rt_info>
			<input>
				<port id="0" precision="FP16">
					<dim>384</dim>
					<dim>384</dim>
				</port>
			</input>
			<output>
				<port id="1" precision="FP32">
					<dim>384</dim>
					<dim>384</dim>
				</port>
			</output>
		</layer>
		<layer id="155" name="/0/auto_model/encoder/layer.0/attention/self/value/MatMul" type="MatMul" version="opset1">
			<data transpose_a="false" transpose_b="true" />
			<input>
				<port id="0" precision="FP32">
					<dim>-1</dim>
					<dim>-1</dim>
					<dim>384</dim>
				</port>
				<port id="1" precision="FP32">
					<dim>384</dim>
					<dim>384</dim>
				</port>
			</input>
			<output>
				<port id="2" precision="FP32" names="/0/auto_model/encoder/layer.0/attention/self/value/MatMul_output_0">
					<dim>-1</dim>
					<dim>-1</dim>
					<dim>384</dim>
				</port>
			</output>
		</layer>
		<layer id="156" name="/0/auto_model/encoder/layer.0/attention/self/value/Add" type="Add" version="opset1">
			<data auto_broadcast="numpy" />
			<input>
				<port id="0" precision="FP32">
					<dim>1</dim>
					<dim>1</dim>
					<dim>384</dim>
				</port>
				<port id="1" precision="FP32">
					<dim>-1</dim>
					<dim>-1</dim>
					<dim>384</dim>
				</port>
			</input>
			<output>
				<port id="2" precision="FP32" names="/0/auto_model/encoder/layer.0/attention/self/value/Add_output_0">
					<dim>-1</dim>
					<dim>-1</dim>
					<dim>384</dim>
				</port>
			</output>
		</layer>
		<layer id="157" name="/0/auto_model/encoder/layer.0/attention/self/Concat_2" type="Const" version="opset1">
			<data element_type="i64" shape="4" offset="24172600" size="32" />
			<rt_info>
				<attribute name="precise" version="0" />
			</rt_info>
			<output>
				<port id="0" precision="I64">
					<dim>4</dim>
				</port>
			</output>
		</layer>
		<layer id="158" name="/0/auto_model/encoder/layer.0/attention/self/Reshape_2" type="Reshape" version="opset1">
			<data special_zero="true" />
			<input>
				<port id="0" precision="FP32">
					<dim>-1</dim>
					<dim>-1</dim>
					<dim>384</dim>
				</port>
				<port id="1" precision="I64">
					<dim>4</dim>
				</port>
			</input>
			<output>
				<port id="2" precision="FP32" names="/0/auto_model/encoder/layer.0/attention/self/Reshape_2_output_0">
					<dim>-1</dim>
					<dim>-1</dim>
					<dim>12</dim>
					<dim>32</dim>
				</port>
			</output>
		</layer>
		<layer id="159" name="Constant_285" type="Const" version="opset1">
			<data element_type="i64" shape="4" offset="24172632" size="32" />
			<output>
				<port id="0" precision="I64">
					<dim>4</dim>
				</port>
			</output>
		</layer>
		<layer id="160" name="/0/auto_model/encoder/layer.0/attention/self/Transpose_1" type="Transpose" version="opset1">
			<input>
				<port id="0" precision="FP32">
					<dim>-1</dim>
					<dim>-1</dim>
					<dim>12</dim>
					<dim>32</dim>
				</port>
				<port id="1" precision="I64">
					<dim>4</dim>
				</port>
			</input>
			<output>
				<port id="2" precision="FP32" names="/0/auto_model/encoder/layer.0/attention/self/Transpose_1_output_0">
					<dim>-1</dim>
					<dim>12</dim>
					<dim>-1</dim>
					<dim>32</dim>
				</port>
			</output>
		</layer>
		<layer id="161" name="/0/auto_model/encoder/layer.0/attention/self/MatMul_1" type="MatMul" version="opset1">
			<data transpose_a="false" transpose_b="false" />
			<input>
				<port id="0" precision="FP32">
					<dim>-1</dim>
					<dim>12</dim>
					<dim>-1</dim>
					<dim>-1</dim>
				</port>
				<port id="1" precision="FP32">
					<dim>-1</dim>
					<dim>12</dim>
					<dim>-1</dim>
					<dim>32</dim>
				</port>
			</input>
			<output>
				<port id="2" precision="FP32" names="/0/auto_model/encoder/layer.0/attention/self/MatMul_1_output_0">
					<dim>-1</dim>
					<dim>12</dim>
					<dim>-1</dim>
					<dim>32</dim>
				</port>
			</output>
		</layer>
		<layer id="162" name="Constant_313" type="Const" version="opset1">
			<data element_type="i64" shape="4" offset="24172632" size="32" />
			<output>
				<port id="0" precision="I64">
					<dim>4</dim>
				</port>
			</output>
		</layer>
		<layer id="163" name="/0/auto_model/encoder/layer.0/attention/self/Transpose_3" type="Transpose" version="opset1">
			<input>
				<port id="0" precision="FP32">
					<dim>-1</dim>
					<dim>12</dim>
					<dim>-1</dim>
					<dim>32</dim>
				</port>
				<port id="1" precision="I64">
					<dim>4</dim>
				</port>
			</input>
			<output>
				<port id="2" precision="FP32" names="/0/auto_model/encoder/layer.0/attention/self/Transpose_3_output_0">
					<dim>-1</dim>
					<dim>-1</dim>
					<dim>12</dim>
					<dim>32</dim>
				</port>
			</output>
		</layer>
		<layer id="164" name="/0/auto_model/encoder/layer.0/attention/self/Shape" type="ShapeOf" version="opset3">
			<data output_type="i64" />
			<input>
				<port id="0" precision="FP32">
					<dim>-1</dim>
					<dim>-1</dim>
					<dim>384</dim>
				</port>
			</input>
			<output>
				<port id="1" precision="I64" names="/0/auto_model/encoder/layer.0/attention/self/Concat_3_output_0,/0/auto_model/encoder/layer.0/attention/self/Shape_1_output_0,/0/auto_model/encoder/layer.0/attention/self/Shape_output_0,/0/auto_model/encoder/layer.1/attention/self/Concat_3_output_0,/0/auto_model/encoder/layer.1/attention/self/Shape_1_output_0,/0/auto_model/encoder/layer.1/attention/self/Shape_output_0,/0/auto_model/encoder/layer.2/attention/self/Concat_3_output_0,/0/auto_model/encoder/layer.2/attention/self/Shape_1_output_0,/0/auto_model/encoder/layer.2/attention/self/Shape_output_0,/0/auto_model/encoder/layer.3/attention/self/Concat_3_output_0,/0/auto_model/encoder/layer.3/attention/self/Shape_1_output_0,/0/auto_model/encoder/layer.3/attention/self/Shape_output_0,/0/auto_model/encoder/layer.4/attention/self/Concat_3_output_0,/0/auto_model/encoder/layer.4/attention/self/Shape_1_output_0,/0/auto_model/encoder/layer.4/attention/self/Shape_output_0,/0/auto_model/encoder/layer.5/attention/self/Concat_3_output_0,/0/auto_model/encoder/layer.5/attention/self/Shape_1_output_0,/0/auto_model/encoder/layer.5/attention/self/Shape_output_0,/1/Concat_output_0,/1/Reshape_output_0,/1/Shape_1_output_0,/1/Shape_2_output_0,/1/Shape_output_0">
					<dim>3</dim>
				</port>
			</output>
		</layer>
		<layer id="165" name="/0/auto_model/encoder/layer.0/attention/self/Reshape_3" type="Reshape" version="opset1">
			<data special_zero="true" />
			<input>
				<port id="0" precision="FP32">
					<dim>-1</dim>
					<dim>-1</dim>
					<dim>12</dim>
					<dim>32</dim>
				</port>
				<port id="1" precision="I64">
					<dim>3</dim>
				</port>
			</input>
			<output>
				<port id="2" precision="FP32" names="/0/auto_model/encoder/layer.0/attention/self/Reshape_3_output_0">
					<dim>-1</dim>
					<dim>-1</dim>
					<dim>384</dim>
				</port>
			</output>
		</layer>
		<layer id="166" name="Transpose_3725_compressed" type="Const" version="opset1">
			<data element_type="f16" shape="384, 384" offset="24764142" size="294912" />
			<output>
				<port id="0" precision="FP16">
					<dim>384</dim>
					<dim>384</dim>
				</port>
			</output>
		</layer>
		<layer id="167" name="Transpose_3725" type="Convert" version="opset1">
			<data destination_type="f32" />
			<rt_info>
				<attribute name="decompression" version="0" />
			</rt_info>
			<input>
				<port id="0" precision="FP16">
					<dim>384</dim>
					<dim>384</dim>
				</port>
			</input>
			<output>
				<port id="1" precision="FP32">
					<dim>384</dim>
					<dim>384</dim>
				</port>
			</output>
		</layer>
		<layer id="168" name="/0/auto_model/encoder/layer.0/attention/output/dense/MatMul" type="MatMul" version="opset1">
			<data transpose_a="false" transpose_b="true" />
			<input>
				<port id="0" precision="FP32">
					<dim>-1</dim>
					<dim>-1</dim>
					<dim>384</dim>
				</port>
				<port id="1" precision="FP32">
					<dim>384</dim>
					<dim>384</dim>
				</port>
			</input>
			<output>
				<port id="2" precision="FP32" names="/0/auto_model/encoder/layer.0/attention/output/dense/MatMul_output_0">
					<dim>-1</dim>
					<dim>-1</dim>
					<dim>384</dim>
				</port>
			</output>
		</layer>
		<layer id="169" name="/0/auto_model/encoder/layer.0/attention/output/dense/Add" type="Add" version="opset1">
			<data auto_broadcast="numpy" />
			<input>
				<port id="0" precision="FP32">
					<dim>1</dim>
					<dim>1</dim>
					<dim>384</dim>
				</port>
				<port id="1" precision="FP32">
					<dim>-1</dim>
					<dim>-1</dim>
					<dim>384</dim>
				</port>
			</input>
			<output>
				<port id="2" precision="FP32" names="/0/auto_model/encoder/layer.0/attention/output/dense/Add_output_0">
					<dim>-1</dim>
					<dim>-1</dim>
					<dim>384</dim>
				</port>
			</output>
		</layer>
		<layer id="170" name="/0/auto_model/encoder/layer.0/attention/output/Add" type="Add" version="opset1">
			<data auto_broadcast="numpy" />
			<input>
				<port id="0" precision="FP32">
					<dim>-1</dim>
					<dim>-1</dim>
					<dim>384</dim>
				</port>
				<port id="1" precision="FP32">
					<dim>-1</dim>
					<dim>-1</dim>
					<dim>384</dim>
				</port>
			</input>
			<output>
				<port id="2" precision="FP32" names="/0/auto_model/encoder/layer.0/attention/output/Add_output_0">
					<dim>-1</dim>
					<dim>-1</dim>
					<dim>384</dim>
				</port>
			</output>
		</layer>
		<layer id="171" name="Constant_325" type="Const" version="opset1">
			<data element_type="i64" shape="1" offset="23876144" size="8" />
			<output>
				<port id="0" precision="I64">
					<dim>1</dim>
				</port>
			</output>
		</layer>
		<layer id="172" name="/0/auto_model/encoder/layer.0/attention/output/LayerNorm/Div" type="MVN" version="opset6">
			<data eps="9.999999960041972e-13" normalize_variance="true" eps_mode="INSIDE_SQRT" />
			<input>
				<port id="0" precision="FP32">
					<dim>-1</dim>
					<dim>-1</dim>
					<dim>384</dim>
				</port>
				<port id="1" precision="I64">
					<dim>1</dim>
				</port>
			</input>
			<output>
				<port id="2" precision="FP32" names="/0/auto_model/encoder/layer.0/attention/output/LayerNorm/Div_output_0">
					<dim>-1</dim>
					<dim>-1</dim>
					<dim>384</dim>
				</port>
			</output>
		</layer>
		<layer id="173" name="Constant_4272_compressed" type="Const" version="opset1">
			<data element_type="f16" shape="1, 1, 384" offset="25059054" size="768" />
			<output>
				<port id="0" precision="FP16">
					<dim>1</dim>
					<dim>1</dim>
					<dim>384</dim>
				</port>
			</output>
		</layer>
		<layer id="174" name="Constant_4272" type="Convert" version="opset1">
			<data destination_type="f32" />
			<rt_info>
				<attribute name="decompression" version="0" />
			</rt_info>
			<input>
				<port id="0" precision="FP16">
					<dim>1</dim>
					<dim>1</dim>
					<dim>384</dim>
				</port>
			</input>
			<output>
				<port id="1" precision="FP32">
					<dim>1</dim>
					<dim>1</dim>
					<dim>384</dim>
				</port>
			</output>
		</layer>
		<layer id="175" name="/0/auto_model/encoder/layer.0/attention/output/LayerNorm/Mul" type="Multiply" version="opset1">
			<data auto_broadcast="numpy" />
			<input>
				<port id="0" precision="FP32">
					<dim>-1</dim>
					<dim>-1</dim>
					<dim>384</dim>
				</port>
				<port id="1" precision="FP32">
					<dim>1</dim>
					<dim>1</dim>
					<dim>384</dim>
				</port>
			</input>
			<output>
				<port id="2" precision="FP32" names="/0/auto_model/encoder/layer.0/attention/output/LayerNorm/Mul_output_0">
					<dim>-1</dim>
					<dim>-1</dim>
					<dim>384</dim>
				</port>
			</output>
		</layer>
		<layer id="176" name="Constant_4273_compressed" type="Const" version="opset1">
			<data element_type="f16" shape="1, 1, 384" offset="25059822" size="768" />
			<output>
				<port id="0" precision="FP16">
					<dim>1</dim>
					<dim>1</dim>
					<dim>384</dim>
				</port>
			</output>
		</layer>
		<layer id="177" name="Constant_4273" type="Convert" version="opset1">
			<data destination_type="f32" />
			<rt_info>
				<attribute name="decompression" version="0" />
			</rt_info>
			<input>
				<port id="0" precision="FP16">
					<dim>1</dim>
					<dim>1</dim>
					<dim>384</dim>
				</port>
			</input>
			<output>
				<port id="1" precision="FP32">
					<dim>1</dim>
					<dim>1</dim>
					<dim>384</dim>
				</port>
			</output>
		</layer>
		<layer id="178" name="/0/auto_model/encoder/layer.0/attention/output/LayerNorm/Add_1" type="Add" version="opset1">
			<data auto_broadcast="numpy" />
			<input>
				<port id="0" precision="FP32">
					<dim>-1</dim>
					<dim>-1</dim>
					<dim>384</dim>
				</port>
				<port id="1" precision="FP32">
					<dim>1</dim>
					<dim>1</dim>
					<dim>384</dim>
				</port>
			</input>
			<output>
				<port id="2" precision="FP32" names="/0/auto_model/encoder/layer.0/attention/output/LayerNorm/Add_1_output_0">
					<dim>-1</dim>
					<dim>-1</dim>
					<dim>384</dim>
				</port>
			</output>
		</layer>
		<layer id="179" name="Transpose_3743_compressed" type="Const" version="opset1">
			<data element_type="f16" shape="1536, 384" offset="25060590" size="1179648" />
			<output>
				<port id="0" precision="FP16">
					<dim>1536</dim>
					<dim>384</dim>
				</port>
			</output>
		</layer>
		<layer id="180" name="Transpose_3743" type="Convert" version="opset1">
			<data destination_type="f32" />
			<rt_info>
				<attribute name="decompression" version="0" />
			</rt_info>
			<input>
				<port id="0" precision="FP16">
					<dim>1536</dim>
					<dim>384</dim>
				</port>
			</input>
			<output>
				<port id="1" precision="FP32">
					<dim>1536</dim>
					<dim>384</dim>
				</port>
			</output>
		</layer>
		<layer id="181" name="/0/auto_model/encoder/layer.0/intermediate/dense/MatMul" type="MatMul" version="opset1">
			<data transpose_a="false" transpose_b="true" />
			<input>
				<port id="0" precision="FP32">
					<dim>-1</dim>
					<dim>-1</dim>
					<dim>384</dim>
				</port>
				<port id="1" precision="FP32">
					<dim>1536</dim>
					<dim>384</dim>
				</port>
			</input>
			<output>
				<port id="2" precision="FP32" names="/0/auto_model/encoder/layer.0/intermediate/dense/MatMul_output_0">
					<dim>-1</dim>
					<dim>-1</dim>
					<dim>1536</dim>
				</port>
			</output>
		</layer>
		<layer id="182" name="/0/auto_model/encoder/layer.0/intermediate/dense/Add" type="Add" version="opset1">
			<data auto_broadcast="numpy" />
			<input>
				<port id="0" precision="FP32">
					<dim>1</dim>
					<dim>1</dim>
					<dim>1536</dim>
				</port>
				<port id="1" precision="FP32">
					<dim>-1</dim>
					<dim>-1</dim>
					<dim>1536</dim>
				</port>
			</input>
			<output>
				<port id="2" precision="FP32" names="/0/auto_model/encoder/layer.0/intermediate/dense/Add_output_0">
					<dim>-1</dim>
					<dim>-1</dim>
					<dim>1536</dim>
				</port>
			</output>
		</layer>
		<layer id="183" name="/0/auto_model/encoder/layer.0/intermediate/intermediate_act_fn/Mul_1" type="Gelu" version="opset7">
			<data approximation_mode="ERF" />
			<input>
				<port id="0" precision="FP32">
					<dim>-1</dim>
					<dim>-1</dim>
					<dim>1536</dim>
				</port>
			</input>
			<output>
				<port id="1" precision="FP32" names="/0/auto_model/encoder/layer.0/intermediate/intermediate_act_fn/Mul_1_output_0">
					<dim>-1</dim>
					<dim>-1</dim>
					<dim>1536</dim>
				</port>
			</output>
		</layer>
		<layer id="184" name="Transpose_3755_compressed" type="Const" version="opset1">
			<data element_type="f16" shape="384, 1536" offset="26240238" size="1179648" />
			<output>
				<port id="0" precision="FP16">
					<dim>384</dim>
					<dim>1536</dim>
				</port>
			</output>
		</layer>
		<layer id="185" name="Transpose_3755" type="Convert" version="opset1">
			<data destination_type="f32" />
			<rt_info>
				<attribute name="decompression" version="0" />
			</rt_info>
			<input>
				<port id="0" precision="FP16">
					<dim>384</dim>
					<dim>1536</dim>
				</port>
			</input>
			<output>
				<port id="1" precision="FP32">
					<dim>384</dim>
					<dim>1536</dim>
				</port>
			</output>
		</layer>
		<layer id="186" name="/0/auto_model/encoder/layer.0/output/dense/MatMul" type="MatMul" version="opset1">
			<data transpose_a="false" transpose_b="true" />
			<input>
				<port id="0" precision="FP32">
					<dim>-1</dim>
					<dim>-1</dim>
					<dim>1536</dim>
				</port>
				<port id="1" precision="FP32">
					<dim>384</dim>
					<dim>1536</dim>
				</port>
			</input>
			<output>
				<port id="2" precision="FP32" names="/0/auto_model/encoder/layer.0/output/dense/MatMul_output_0">
					<dim>-1</dim>
					<dim>-1</dim>
					<dim>384</dim>
				</port>
			</output>
		</layer>
		<layer id="187" name="/0/auto_model/encoder/layer.0/output/dense/Add" type="Add" version="opset1">
			<data auto_broadcast="numpy" />
			<input>
				<port id="0" precision="FP32">
					<dim>1</dim>
					<dim>1</dim>
					<dim>384</dim>
				</port>
				<port id="1" precision="FP32">
					<dim>-1</dim>
					<dim>-1</dim>
					<dim>384</dim>
				</port>
			</input>
			<output>
				<port id="2" precision="FP32" names="/0/auto_model/encoder/layer.0/output/dense/Add_output_0">
					<dim>-1</dim>
					<dim>-1</dim>
					<dim>384</dim>
				</port>
			</output>
		</layer>
		<layer id="188" name="/0/auto_model/encoder/layer.0/output/Add" type="Add" version="opset1">
			<data auto_broadcast="numpy" />
			<input>
				<port id="0" precision="FP32">
					<dim>-1</dim>
					<dim>-1</dim>
					<dim>384</dim>
				</port>
				<port id="1" precision="FP32">
					<dim>-1</dim>
					<dim>-1</dim>
					<dim>384</dim>
				</port>
			</input>
			<output>
				<port id="2" precision="FP32" names="/0/auto_model/encoder/layer.0/output/Add_output_0">
					<dim>-1</dim>
					<dim>-1</dim>
					<dim>384</dim>
				</port>
			</output>
		</layer>
		<layer id="189" name="Constant_351" type="Const" version="opset1">
			<data element_type="i64" shape="1" offset="23876144" size="8" />
			<output>
				<port id="0" precision="I64">
					<dim>1</dim>
				</port>
			</output>
		</layer>
		<layer id="190" name="/0/auto_model/encoder/layer.0/output/LayerNorm/Div" type="MVN" version="opset6">
			<data eps="9.999999960041972e-13" normalize_variance="true" eps_mode="INSIDE_SQRT" />
			<input>
				<port id="0" precision="FP32">
					<dim>-1</dim>
					<dim>-1</dim>
					<dim>384</dim>
				</port>
				<port id="1" precision="I64">
					<dim>1</dim>
				</port>
			</input>
			<output>
				<port id="2" precision="FP32" names="/0/auto_model/encoder/layer.0/output/LayerNorm/Div_output_0">
					<dim>-1</dim>
					<dim>-1</dim>
					<dim>384</dim>
				</port>
			</output>
		</layer>
		<layer id="191" name="Constant_4276_compressed" type="Const" version="opset1">
			<data element_type="f16" shape="1, 1, 384" offset="27419886" size="768" />
			<output>
				<port id="0" precision="FP16">
					<dim>1</dim>
					<dim>1</dim>
					<dim>384</dim>
				</port>
			</output>
		</layer>
		<layer id="192" name="Constant_4276" type="Convert" version="opset1">
			<data destination_type="f32" />
			<rt_info>
				<attribute name="decompression" version="0" />
			</rt_info>
			<input>
				<port id="0" precision="FP16">
					<dim>1</dim>
					<dim>1</dim>
					<dim>384</dim>
				</port>
			</input>
			<output>
				<port id="1" precision="FP32">
					<dim>1</dim>
					<dim>1</dim>
					<dim>384</dim>
				</port>
			</output>
		</layer>
		<layer id="193" name="/0/auto_model/encoder/layer.0/output/LayerNorm/Mul" type="Multiply" version="opset1">
			<data auto_broadcast="numpy" />
			<input>
				<port id="0" precision="FP32">
					<dim>-1</dim>
					<dim>-1</dim>
					<dim>384</dim>
				</port>
				<port id="1" precision="FP32">
					<dim>1</dim>
					<dim>1</dim>
					<dim>384</dim>
				</port>
			</input>
			<output>
				<port id="2" precision="FP32" names="/0/auto_model/encoder/layer.0/output/LayerNorm/Mul_output_0">
					<dim>-1</dim>
					<dim>-1</dim>
					<dim>384</dim>
				</port>
			</output>
		</layer>
		<layer id="194" name="Constant_4277_compressed" type="Const" version="opset1">
			<data element_type="f16" shape="1, 1, 384" offset="27420654" size="768" />
			<output>
				<port id="0" precision="FP16">
					<dim>1</dim>
					<dim>1</dim>
					<dim>384</dim>
				</port>
			</output>
		</layer>
		<layer id="195" name="Constant_4277" type="Convert" version="opset1">
			<data destination_type="f32" />
			<rt_info>
				<attribute name="decompression" version="0" />
			</rt_info>
			<input>
				<port id="0" precision="FP16">
					<dim>1</dim>
					<dim>1</dim>
					<dim>384</dim>
				</port>
			</input>
			<output>
				<port id="1" precision="FP32">
					<dim>1</dim>
					<dim>1</dim>
					<dim>384</dim>
				</port>
			</output>
		</layer>
		<layer id="196" name="/0/auto_model/encoder/layer.0/output/LayerNorm/Add_1" type="Add" version="opset1">
			<data auto_broadcast="numpy" />
			<input>
				<port id="0" precision="FP32">
					<dim>-1</dim>
					<dim>-1</dim>
					<dim>384</dim>
				</port>
				<port id="1" precision="FP32">
					<dim>1</dim>
					<dim>1</dim>
					<dim>384</dim>
				</port>
			</input>
			<output>
				<port id="2" precision="FP32" names="/0/auto_model/encoder/layer.0/output/LayerNorm/Add_1_output_0">
					<dim>-1</dim>
					<dim>-1</dim>
					<dim>384</dim>
				</port>
			</output>
		</layer>
		<layer id="197" name="Transpose_3773_compressed" type="Const" version="opset1">
			<data element_type="f16" shape="384, 384" offset="27421422" size="294912" />
			<output>
				<port id="0" precision="FP16">
					<dim>384</dim>
					<dim>384</dim>
				</port>
			</output>
		</layer>
		<layer id="198" name="Transpose_3773" type="Convert" version="opset1">
			<data destination_type="f32" />
			<rt_info>
				<attribute name="decompression" version="0" />
			</rt_info>
			<input>
				<port id="0" precision="FP16">
					<dim>384</dim>
					<dim>384</dim>
				</port>
			</input>
			<output>
				<port id="1" precision="FP32">
					<dim>384</dim>
					<dim>384</dim>
				</port>
			</output>
		</layer>
		<layer id="199" name="/0/auto_model/encoder/layer.1/attention/self/query/MatMul" type="MatMul" version="opset1">
			<data transpose_a="false" transpose_b="true" />
			<input>
				<port id="0" precision="FP32">
					<dim>-1</dim>
					<dim>-1</dim>
					<dim>384</dim>
				</port>
				<port id="1" precision="FP32">
					<dim>384</dim>
					<dim>384</dim>
				</port>
			</input>
			<output>
				<port id="2" precision="FP32" names="/0/auto_model/encoder/layer.1/attention/self/query/MatMul_output_0">
					<dim>-1</dim>
					<dim>-1</dim>
					<dim>384</dim>
				</port>
			</output>
		</layer>
		<layer id="200" name="/0/auto_model/encoder/layer.1/attention/self/query/Add" type="Add" version="opset1">
			<data auto_broadcast="numpy" />
			<input>
				<port id="0" precision="FP32">
					<dim>1</dim>
					<dim>1</dim>
					<dim>384</dim>
				</port>
				<port id="1" precision="FP32">
					<dim>-1</dim>
					<dim>-1</dim>
					<dim>384</dim>
				</port>
			</input>
			<output>
				<port id="2" precision="FP32" names="/0/auto_model/encoder/layer.1/attention/self/query/Add_output_0">
					<dim>-1</dim>
					<dim>-1</dim>
					<dim>384</dim>
				</port>
			</output>
		</layer>
		<layer id="201" name="/0/auto_model/encoder/layer.1/attention/self/Concat" type="Const" version="opset1">
			<data element_type="i64" shape="4" offset="24172600" size="32" />
			<rt_info>
				<attribute name="precise" version="0" />
			</rt_info>
			<output>
				<port id="0" precision="I64">
					<dim>4</dim>
				</port>
			</output>
		</layer>
		<layer id="202" name="/0/auto_model/encoder/layer.1/attention/self/Reshape" type="Reshape" version="opset1">
			<data special_zero="true" />
			<input>
				<port id="0" precision="FP32">
					<dim>-1</dim>
					<dim>-1</dim>
					<dim>384</dim>
				</port>
				<port id="1" precision="I64">
					<dim>4</dim>
				</port>
			</input>
			<output>
				<port id="2" precision="FP32" names="/0/auto_model/encoder/layer.1/attention/self/Reshape_output_0">
					<dim>-1</dim>
					<dim>-1</dim>
					<dim>12</dim>
					<dim>32</dim>
				</port>
			</output>
		</layer>
		<layer id="203" name="Constant_390" type="Const" version="opset1">
			<data element_type="i64" shape="4" offset="24172632" size="32" />
			<output>
				<port id="0" precision="I64">
					<dim>4</dim>
				</port>
			</output>
		</layer>
		<layer id="204" name="/0/auto_model/encoder/layer.1/attention/self/Transpose" type="Transpose" version="opset1">
			<input>
				<port id="0" precision="FP32">
					<dim>-1</dim>
					<dim>-1</dim>
					<dim>12</dim>
					<dim>32</dim>
				</port>
				<port id="1" precision="I64">
					<dim>4</dim>
				</port>
			</input>
			<output>
				<port id="2" precision="FP32" names="/0/auto_model/encoder/layer.1/attention/self/Transpose_output_0">
					<dim>-1</dim>
					<dim>12</dim>
					<dim>-1</dim>
					<dim>32</dim>
				</port>
			</output>
		</layer>
		<layer id="205" name="/0/auto_model/encoder/layer.1/attention/self/Constant_16_compressed" type="Const" version="opset1">
			<data element_type="f16" shape="1" offset="24172664" size="2" />
			<output>
				<port id="0" precision="FP16" names="/0/auto_model/encoder/layer.1/attention/self/Constant_16_output_0">
					<dim>1</dim>
				</port>
			</output>
		</layer>
		<layer id="206" name="/0/auto_model/encoder/layer.1/attention/self/Constant_16" type="Convert" version="opset1">
			<data destination_type="f32" />
			<rt_info>
				<attribute name="decompression" version="0" />
			</rt_info>
			<input>
				<port id="0" precision="FP16">
					<dim>1</dim>
				</port>
			</input>
			<output>
				<port id="1" precision="FP32">
					<dim>1</dim>
				</port>
			</output>
		</layer>
		<layer id="207" name="/0/auto_model/encoder/layer.1/attention/self/Shape_8" type="ShapeOf" version="opset3">
			<data output_type="i64" />
			<input>
				<port id="0" precision="FP32">
					<dim>-1</dim>
					<dim>12</dim>
					<dim>-1</dim>
					<dim>32</dim>
				</port>
			</input>
			<output>
				<port id="1" precision="I64" names="/0/auto_model/encoder/layer.1/attention/self/Shape_8_output_0">
					<dim>4</dim>
				</port>
			</output>
		</layer>
		<layer id="208" name="/0/auto_model/encoder/layer.1/attention/self/Constant_14" type="Const" version="opset1">
			<data element_type="i64" shape="1" offset="23876144" size="8" />
			<output>
				<port id="0" precision="I64" names="/0/auto_model/encoder/layer.1/attention/self/Constant_14_output_0">
					<dim>1</dim>
				</port>
			</output>
		</layer>
		<layer id="209" name="/0/auto_model/encoder/layer.1/attention/self/Constant_15" type="Const" version="opset1">
			<data element_type="i64" shape="1" offset="24172666" size="8" />
			<output>
				<port id="0" precision="I64" names="/0/auto_model/encoder/layer.1/attention/self/Constant_15_output_0">
					<dim>1</dim>
				</port>
			</output>
		</layer>
		<layer id="210" name="Broadcast_435" type="Const" version="opset1">
			<data element_type="i64" shape="1" offset="23478792" size="8" />
			<output>
				<port id="0" precision="I64">
					<dim>1</dim>
				</port>
			</output>
		</layer>
		<layer id="211" name="Constant_439" type="Const" version="opset1">
			<data element_type="i64" shape="1" offset="23473152" size="8" />
			<output>
				<port id="0" precision="I64">
					<dim>1</dim>
				</port>
			</output>
		</layer>
		<layer id="212" name="/0/auto_model/encoder/layer.1/attention/self/Slice" type="Slice" version="opset8">
			<input>
				<port id="0" precision="I64">
					<dim>4</dim>
				</port>
				<port id="1" precision="I64">
					<dim>1</dim>
				</port>
				<port id="2" precision="I64">
					<dim>1</dim>
				</port>
				<port id="3" precision="I64">
					<dim>1</dim>
				</port>
				<port id="4" precision="I64">
					<dim>1</dim>
				</port>
			</input>
			<output>
				<port id="5" precision="I64" names="/0/auto_model/encoder/layer.1/attention/self/Slice_output_0">
					<dim>1</dim>
				</port>
			</output>
		</layer>
		<layer id="213" name="/0/auto_model/encoder/layer.1/attention/self/Cast" type="Convert" version="opset1">
			<data destination_type="f32" />
			<input>
				<port id="0" precision="I64">
					<dim>1</dim>
				</port>
			</input>
			<output>
				<port id="1" precision="FP32" names="/0/auto_model/encoder/layer.1/attention/self/Cast_output_0">
					<dim>1</dim>
				</port>
			</output>
		</layer>
		<layer id="214" name="/0/auto_model/encoder/layer.1/attention/self/Sqrt" type="Sqrt" version="opset1">
			<input>
				<port id="0" precision="FP32">
					<dim>1</dim>
				</port>
			</input>
			<output>
				<port id="1" precision="FP32" names="/0/auto_model/encoder/layer.1/attention/self/Sqrt_output_0">
					<dim>1</dim>
				</port>
			</output>
		</layer>
		<layer id="215" name="/0/auto_model/encoder/layer.1/attention/self/Div" type="Divide" version="opset1">
			<data auto_broadcast="numpy" m_pythondiv="true" />
			<input>
				<port id="0" precision="FP32">
					<dim>1</dim>
				</port>
				<port id="1" precision="FP32">
					<dim>1</dim>
				</port>
			</input>
			<output>
				<port id="2" precision="FP32" names="/0/auto_model/encoder/layer.1/attention/self/Cast_1_output_0,/0/auto_model/encoder/layer.1/attention/self/Div_output_0">
					<dim>1</dim>
				</port>
			</output>
		</layer>
		<layer id="216" name="/0/auto_model/encoder/layer.1/attention/self/Sqrt_1" type="Sqrt" version="opset1">
			<input>
				<port id="0" precision="FP32">
					<dim>1</dim>
				</port>
			</input>
			<output>
				<port id="1" precision="FP32" names="/0/auto_model/encoder/layer.1/attention/self/Sqrt_1_output_0,/0/auto_model/encoder/layer.1/attention/self/Sqrt_2_output_0">
					<dim>1</dim>
				</port>
			</output>
		</layer>
		<layer id="217" name="/0/auto_model/encoder/layer.1/attention/self/Mul" type="Multiply" version="opset1">
			<data auto_broadcast="numpy" />
			<input>
				<port id="0" precision="FP32">
					<dim>-1</dim>
					<dim>12</dim>
					<dim>-1</dim>
					<dim>32</dim>
				</port>
				<port id="1" precision="FP32">
					<dim>1</dim>
				</port>
			</input>
			<output>
				<port id="2" precision="FP32" names="/0/auto_model/encoder/layer.1/attention/self/Mul_output_0">
					<dim>-1</dim>
					<dim>12</dim>
					<dim>-1</dim>
					<dim>32</dim>
				</port>
			</output>
		</layer>
		<layer id="218" name="Constant_4279_compressed" type="Const" version="opset1">
			<data element_type="f16" shape="1, 1, 384" offset="27716334" size="768" />
			<output>
				<port id="0" precision="FP16">
					<dim>1</dim>
					<dim>1</dim>
					<dim>384</dim>
				</port>
			</output>
		</layer>
		<layer id="219" name="Constant_4279" type="Convert" version="opset1">
			<data destination_type="f32" />
			<rt_info>
				<attribute name="decompression" version="0" />
			</rt_info>
			<input>
				<port id="0" precision="FP16">
					<dim>1</dim>
					<dim>1</dim>
					<dim>384</dim>
				</port>
			</input>
			<output>
				<port id="1" precision="FP32">
					<dim>1</dim>
					<dim>1</dim>
					<dim>384</dim>
				</port>
			</output>
		</layer>
		<layer id="220" name="Transpose_3782_compressed" type="Const" version="opset1">
			<data element_type="f16" shape="384, 384" offset="27717102" size="294912" />
			<output>
				<port id="0" precision="FP16">
					<dim>384</dim>
					<dim>384</dim>
				</port>
			</output>
		</layer>
		<layer id="221" name="Transpose_3782" type="Convert" version="opset1">
			<data destination_type="f32" />
			<rt_info>
				<attribute name="decompression" version="0" />
			</rt_info>
			<input>
				<port id="0" precision="FP16">
					<dim>384</dim>
					<dim>384</dim>
				</port>
			</input>
			<output>
				<port id="1" precision="FP32">
					<dim>384</dim>
					<dim>384</dim>
				</port>
			</output>
		</layer>
		<layer id="222" name="/0/auto_model/encoder/layer.1/attention/self/key/MatMul" type="MatMul" version="opset1">
			<data transpose_a="false" transpose_b="true" />
			<input>
				<port id="0" precision="FP32">
					<dim>-1</dim>
					<dim>-1</dim>
					<dim>384</dim>
				</port>
				<port id="1" precision="FP32">
					<dim>384</dim>
					<dim>384</dim>
				</port>
			</input>
			<output>
				<port id="2" precision="FP32" names="/0/auto_model/encoder/layer.1/attention/self/key/MatMul_output_0">
					<dim>-1</dim>
					<dim>-1</dim>
					<dim>384</dim>
				</port>
			</output>
		</layer>
		<layer id="223" name="/0/auto_model/encoder/layer.1/attention/self/key/Add" type="Add" version="opset1">
			<data auto_broadcast="numpy" />
			<input>
				<port id="0" precision="FP32">
					<dim>1</dim>
					<dim>1</dim>
					<dim>384</dim>
				</port>
				<port id="1" precision="FP32">
					<dim>-1</dim>
					<dim>-1</dim>
					<dim>384</dim>
				</port>
			</input>
			<output>
				<port id="2" precision="FP32" names="/0/auto_model/encoder/layer.1/attention/self/key/Add_output_0">
					<dim>-1</dim>
					<dim>-1</dim>
					<dim>384</dim>
				</port>
			</output>
		</layer>
		<layer id="224" name="/0/auto_model/encoder/layer.1/attention/self/Concat_1" type="Const" version="opset1">
			<data element_type="i64" shape="4" offset="24172600" size="32" />
			<rt_info>
				<attribute name="precise" version="0" />
			</rt_info>
			<output>
				<port id="0" precision="I64">
					<dim>4</dim>
				</port>
			</output>
		</layer>
		<layer id="225" name="/0/auto_model/encoder/layer.1/attention/self/Reshape_1" type="Reshape" version="opset1">
			<data special_zero="true" />
			<input>
				<port id="0" precision="FP32">
					<dim>-1</dim>
					<dim>-1</dim>
					<dim>384</dim>
				</port>
				<port id="1" precision="I64">
					<dim>4</dim>
				</port>
			</input>
			<output>
				<port id="2" precision="FP32" names="/0/auto_model/encoder/layer.1/attention/self/Reshape_1_output_0">
					<dim>-1</dim>
					<dim>-1</dim>
					<dim>12</dim>
					<dim>32</dim>
				</port>
			</output>
		</layer>
		<layer id="226" name="Constant_446" type="Const" version="opset1">
			<data element_type="i64" shape="4" offset="24468354" size="32" />
			<output>
				<port id="0" precision="I64">
					<dim>4</dim>
				</port>
			</output>
		</layer>
		<layer id="227" name="/0/auto_model/encoder/layer.1/attention/self/Transpose_2" type="Transpose" version="opset1">
			<input>
				<port id="0" precision="FP32">
					<dim>-1</dim>
					<dim>-1</dim>
					<dim>12</dim>
					<dim>32</dim>
				</port>
				<port id="1" precision="I64">
					<dim>4</dim>
				</port>
			</input>
			<output>
				<port id="2" precision="FP32" names="/0/auto_model/encoder/layer.1/attention/self/Transpose_2_output_0">
					<dim>-1</dim>
					<dim>12</dim>
					<dim>32</dim>
					<dim>-1</dim>
				</port>
			</output>
		</layer>
		<layer id="228" name="/0/auto_model/encoder/layer.1/attention/self/Mul_1" type="Multiply" version="opset1">
			<data auto_broadcast="numpy" />
			<input>
				<port id="0" precision="FP32">
					<dim>-1</dim>
					<dim>12</dim>
					<dim>32</dim>
					<dim>-1</dim>
				</port>
				<port id="1" precision="FP32">
					<dim>1</dim>
				</port>
			</input>
			<output>
				<port id="2" precision="FP32" names="/0/auto_model/encoder/layer.1/attention/self/Mul_1_output_0">
					<dim>-1</dim>
					<dim>12</dim>
					<dim>32</dim>
					<dim>-1</dim>
				</port>
			</output>
		</layer>
		<layer id="229" name="/0/auto_model/encoder/layer.1/attention/self/MatMul" type="MatMul" version="opset1">
			<data transpose_a="false" transpose_b="false" />
			<input>
				<port id="0" precision="FP32">
					<dim>-1</dim>
					<dim>12</dim>
					<dim>-1</dim>
					<dim>32</dim>
				</port>
				<port id="1" precision="FP32">
					<dim>-1</dim>
					<dim>12</dim>
					<dim>32</dim>
					<dim>-1</dim>
				</port>
			</input>
			<output>
				<port id="2" precision="FP32" names="/0/auto_model/encoder/layer.1/attention/self/MatMul_output_0">
					<dim>-1</dim>
					<dim>12</dim>
					<dim>-1</dim>
					<dim>-1</dim>
				</port>
			</output>
		</layer>
		<layer id="230" name="/0/auto_model/encoder/layer.1/attention/self/Add" type="Add" version="opset1">
			<data auto_broadcast="numpy" />
			<input>
				<port id="0" precision="FP32">
					<dim>-1</dim>
					<dim>12</dim>
					<dim>-1</dim>
					<dim>-1</dim>
				</port>
				<port id="1" precision="FP32">
					<dim>-1</dim>
					<dim>1</dim>
					<dim>-1</dim>
					<dim>-1</dim>
				</port>
			</input>
			<output>
				<port id="2" precision="FP32" names="/0/auto_model/encoder/layer.1/attention/self/Add_output_0">
					<dim>-1</dim>
					<dim>12</dim>
					<dim>-1</dim>
					<dim>-1</dim>
				</port>
			</output>
		</layer>
		<layer id="231" name="/0/auto_model/encoder/layer.1/attention/self/Softmax" type="SoftMax" version="opset8">
			<data axis="-1" />
			<input>
				<port id="0" precision="FP32">
					<dim>-1</dim>
					<dim>12</dim>
					<dim>-1</dim>
					<dim>-1</dim>
				</port>
			</input>
			<output>
				<port id="1" precision="FP32" names="/0/auto_model/encoder/layer.1/attention/self/Softmax_output_0">
					<dim>-1</dim>
					<dim>12</dim>
					<dim>-1</dim>
					<dim>-1</dim>
				</port>
			</output>
		</layer>
		<layer id="232" name="Constant_4280_compressed" type="Const" version="opset1">
			<data element_type="f16" shape="1, 1, 384" offset="28012014" size="768" />
			<output>
				<port id="0" precision="FP16">
					<dim>1</dim>
					<dim>1</dim>
					<dim>384</dim>
				</port>
			</output>
		</layer>
		<layer id="233" name="Constant_4280" type="Convert" version="opset1">
			<data destination_type="f32" />
			<rt_info>
				<attribute name="decompression" version="0" />
			</rt_info>
			<input>
				<port id="0" precision="FP16">
					<dim>1</dim>
					<dim>1</dim>
					<dim>384</dim>
				</port>
			</input>
			<output>
				<port id="1" precision="FP32">
					<dim>1</dim>
					<dim>1</dim>
					<dim>384</dim>
				</port>
			</output>
		</layer>
		<layer id="234" name="Transpose_3793_compressed" type="Const" version="opset1">
			<data element_type="f16" shape="384, 384" offset="28012782" size="294912" />
			<output>
				<port id="0" precision="FP16">
					<dim>384</dim>
					<dim>384</dim>
				</port>
			</output>
		</layer>
		<layer id="235" name="Transpose_3793" type="Convert" version="opset1">
			<data destination_type="f32" />
			<rt_info>
				<attribute name="decompression" version="0" />
			</rt_info>
			<input>
				<port id="0" precision="FP16">
					<dim>384</dim>
					<dim>384</dim>
				</port>
			</input>
			<output>
				<port id="1" precision="FP32">
					<dim>384</dim>
					<dim>384</dim>
				</port>
			</output>
		</layer>
		<layer id="236" name="/0/auto_model/encoder/layer.1/attention/self/value/MatMul" type="MatMul" version="opset1">
			<data transpose_a="false" transpose_b="true" />
			<input>
				<port id="0" precision="FP32">
					<dim>-1</dim>
					<dim>-1</dim>
					<dim>384</dim>
				</port>
				<port id="1" precision="FP32">
					<dim>384</dim>
					<dim>384</dim>
				</port>
			</input>
			<output>
				<port id="2" precision="FP32" names="/0/auto_model/encoder/layer.1/attention/self/value/MatMul_output_0">
					<dim>-1</dim>
					<dim>-1</dim>
					<dim>384</dim>
				</port>
			</output>
		</layer>
		<layer id="237" name="/0/auto_model/encoder/layer.1/attention/self/value/Add" type="Add" version="opset1">
			<data auto_broadcast="numpy" />
			<input>
				<port id="0" precision="FP32">
					<dim>1</dim>
					<dim>1</dim>
					<dim>384</dim>
				</port>
				<port id="1" precision="FP32">
					<dim>-1</dim>
					<dim>-1</dim>
					<dim>384</dim>
				</port>
			</input>
			<output>
				<port id="2" precision="FP32" names="/0/auto_model/encoder/layer.1/attention/self/value/Add_output_0">
					<dim>-1</dim>
					<dim>-1</dim>
					<dim>384</dim>
				</port>
			</output>
		</layer>
		<layer id="238" name="/0/auto_model/encoder/layer.1/attention/self/Concat_2" type="Const" version="opset1">
			<data element_type="i64" shape="4" offset="24172600" size="32" />
			<rt_info>
				<attribute name="precise" version="0" />
			</rt_info>
			<output>
				<port id="0" precision="I64">
					<dim>4</dim>
				</port>
			</output>
		</layer>
		<layer id="239" name="/0/auto_model/encoder/layer.1/attention/self/Reshape_2" type="Reshape" version="opset1">
			<data special_zero="true" />
			<input>
				<port id="0" precision="FP32">
					<dim>-1</dim>
					<dim>-1</dim>
					<dim>384</dim>
				</port>
				<port id="1" precision="I64">
					<dim>4</dim>
				</port>
			</input>
			<output>
				<port id="2" precision="FP32" names="/0/auto_model/encoder/layer.1/attention/self/Reshape_2_output_0">
					<dim>-1</dim>
					<dim>-1</dim>
					<dim>12</dim>
					<dim>32</dim>
				</port>
			</output>
		</layer>
		<layer id="240" name="Constant_428" type="Const" version="opset1">
			<data element_type="i64" shape="4" offset="24172632" size="32" />
			<output>
				<port id="0" precision="I64">
					<dim>4</dim>
				</port>
			</output>
		</layer>
		<layer id="241" name="/0/auto_model/encoder/layer.1/attention/self/Transpose_1" type="Transpose" version="opset1">
			<input>
				<port id="0" precision="FP32">
					<dim>-1</dim>
					<dim>-1</dim>
					<dim>12</dim>
					<dim>32</dim>
				</port>
				<port id="1" precision="I64">
					<dim>4</dim>
				</port>
			</input>
			<output>
				<port id="2" precision="FP32" names="/0/auto_model/encoder/layer.1/attention/self/Transpose_1_output_0">
					<dim>-1</dim>
					<dim>12</dim>
					<dim>-1</dim>
					<dim>32</dim>
				</port>
			</output>
		</layer>
		<layer id="242" name="/0/auto_model/encoder/layer.1/attention/self/MatMul_1" type="MatMul" version="opset1">
			<data transpose_a="false" transpose_b="false" />
			<input>
				<port id="0" precision="FP32">
					<dim>-1</dim>
					<dim>12</dim>
					<dim>-1</dim>
					<dim>-1</dim>
				</port>
				<port id="1" precision="FP32">
					<dim>-1</dim>
					<dim>12</dim>
					<dim>-1</dim>
					<dim>32</dim>
				</port>
			</input>
			<output>
				<port id="2" precision="FP32" names="/0/auto_model/encoder/layer.1/attention/self/MatMul_1_output_0">
					<dim>-1</dim>
					<dim>12</dim>
					<dim>-1</dim>
					<dim>32</dim>
				</port>
			</output>
		</layer>
		<layer id="243" name="Constant_456" type="Const" version="opset1">
			<data element_type="i64" shape="4" offset="24172632" size="32" />
			<output>
				<port id="0" precision="I64">
					<dim>4</dim>
				</port>
			</output>
		</layer>
		<layer id="244" name="/0/auto_model/encoder/layer.1/attention/self/Transpose_3" type="Transpose" version="opset1">
			<input>
				<port id="0" precision="FP32">
					<dim>-1</dim>
					<dim>12</dim>
					<dim>-1</dim>
					<dim>32</dim>
				</port>
				<port id="1" precision="I64">
					<dim>4</dim>
				</port>
			</input>
			<output>
				<port id="2" precision="FP32" names="/0/auto_model/encoder/layer.1/attention/self/Transpose_3_output_0">
					<dim>-1</dim>
					<dim>-1</dim>
					<dim>12</dim>
					<dim>32</dim>
				</port>
			</output>
		</layer>
		<layer id="245" name="/0/auto_model/encoder/layer.1/attention/self/Reshape_3" type="Reshape" version="opset1">
			<data special_zero="true" />
			<input>
				<port id="0" precision="FP32">
					<dim>-1</dim>
					<dim>-1</dim>
					<dim>12</dim>
					<dim>32</dim>
				</port>
				<port id="1" precision="I64">
					<dim>3</dim>
				</port>
			</input>
			<output>
				<port id="2" precision="FP32" names="/0/auto_model/encoder/layer.1/attention/self/Reshape_3_output_0">
					<dim>-1</dim>
					<dim>-1</dim>
					<dim>384</dim>
				</port>
			</output>
		</layer>
		<layer id="246" name="Transpose_3800_compressed" type="Const" version="opset1">
			<data element_type="f16" shape="384, 384" offset="28307694" size="294912" />
			<output>
				<port id="0" precision="FP16">
					<dim>384</dim>
					<dim>384</dim>
				</port>
			</output>
		</layer>
		<layer id="247" name="Transpose_3800" type="Convert" version="opset1">
			<data destination_type="f32" />
			<rt_info>
				<attribute name="decompression" version="0" />
			</rt_info>
			<input>
				<port id="0" precision="FP16">
					<dim>384</dim>
					<dim>384</dim>
				</port>
			</input>
			<output>
				<port id="1" precision="FP32">
					<dim>384</dim>
					<dim>384</dim>
				</port>
			</output>
		</layer>
		<layer id="248" name="/0/auto_model/encoder/layer.1/attention/output/dense/MatMul" type="MatMul" version="opset1">
			<data transpose_a="false" transpose_b="true" />
			<input>
				<port id="0" precision="FP32">
					<dim>-1</dim>
					<dim>-1</dim>
					<dim>384</dim>
				</port>
				<port id="1" precision="FP32">
					<dim>384</dim>
					<dim>384</dim>
				</port>
			</input>
			<output>
				<port id="2" precision="FP32" names="/0/auto_model/encoder/layer.1/attention/output/dense/MatMul_output_0">
					<dim>-1</dim>
					<dim>-1</dim>
					<dim>384</dim>
				</port>
			</output>
		</layer>
		<layer id="249" name="/0/auto_model/encoder/layer.1/attention/output/dense/Add" type="Add" version="opset1">
			<data auto_broadcast="numpy" />
			<input>
				<port id="0" precision="FP32">
					<dim>1</dim>
					<dim>1</dim>
					<dim>384</dim>
				</port>
				<port id="1" precision="FP32">
					<dim>-1</dim>
					<dim>-1</dim>
					<dim>384</dim>
				</port>
			</input>
			<output>
				<port id="2" precision="FP32" names="/0/auto_model/encoder/layer.1/attention/output/dense/Add_output_0">
					<dim>-1</dim>
					<dim>-1</dim>
					<dim>384</dim>
				</port>
			</output>
		</layer>
		<layer id="250" name="/0/auto_model/encoder/layer.1/attention/output/Add" type="Add" version="opset1">
			<data auto_broadcast="numpy" />
			<input>
				<port id="0" precision="FP32">
					<dim>-1</dim>
					<dim>-1</dim>
					<dim>384</dim>
				</port>
				<port id="1" precision="FP32">
					<dim>-1</dim>
					<dim>-1</dim>
					<dim>384</dim>
				</port>
			</input>
			<output>
				<port id="2" precision="FP32" names="/0/auto_model/encoder/layer.1/attention/output/Add_output_0">
					<dim>-1</dim>
					<dim>-1</dim>
					<dim>384</dim>
				</port>
			</output>
		</layer>
		<layer id="251" name="Constant_468" type="Const" version="opset1">
			<data element_type="i64" shape="1" offset="23876144" size="8" />
			<output>
				<port id="0" precision="I64">
					<dim>1</dim>
				</port>
			</output>
		</layer>
		<layer id="252" name="/0/auto_model/encoder/layer.1/attention/output/LayerNorm/Div" type="MVN" version="opset6">
			<data eps="9.999999960041972e-13" normalize_variance="true" eps_mode="INSIDE_SQRT" />
			<input>
				<port id="0" precision="FP32">
					<dim>-1</dim>
					<dim>-1</dim>
					<dim>384</dim>
				</port>
				<port id="1" precision="I64">
					<dim>1</dim>
				</port>
			</input>
			<output>
				<port id="2" precision="FP32" names="/0/auto_model/encoder/layer.1/attention/output/LayerNorm/Div_output_0">
					<dim>-1</dim>
					<dim>-1</dim>
					<dim>384</dim>
				</port>
			</output>
		</layer>
		<layer id="253" name="Constant_4282_compressed" type="Const" version="opset1">
			<data element_type="f16" shape="1, 1, 384" offset="28602606" size="768" />
			<output>
				<port id="0" precision="FP16">
					<dim>1</dim>
					<dim>1</dim>
					<dim>384</dim>
				</port>
			</output>
		</layer>
		<layer id="254" name="Constant_4282" type="Convert" version="opset1">
			<data destination_type="f32" />
			<rt_info>
				<attribute name="decompression" version="0" />
			</rt_info>
			<input>
				<port id="0" precision="FP16">
					<dim>1</dim>
					<dim>1</dim>
					<dim>384</dim>
				</port>
			</input>
			<output>
				<port id="1" precision="FP32">
					<dim>1</dim>
					<dim>1</dim>
					<dim>384</dim>
				</port>
			</output>
		</layer>
		<layer id="255" name="/0/auto_model/encoder/layer.1/attention/output/LayerNorm/Mul" type="Multiply" version="opset1">
			<data auto_broadcast="numpy" />
			<input>
				<port id="0" precision="FP32">
					<dim>-1</dim>
					<dim>-1</dim>
					<dim>384</dim>
				</port>
				<port id="1" precision="FP32">
					<dim>1</dim>
					<dim>1</dim>
					<dim>384</dim>
				</port>
			</input>
			<output>
				<port id="2" precision="FP32" names="/0/auto_model/encoder/layer.1/attention/output/LayerNorm/Mul_output_0">
					<dim>-1</dim>
					<dim>-1</dim>
					<dim>384</dim>
				</port>
			</output>
		</layer>
		<layer id="256" name="Constant_4283_compressed" type="Const" version="opset1">
			<data element_type="f16" shape="1, 1, 384" offset="28603374" size="768" />
			<output>
				<port id="0" precision="FP16">
					<dim>1</dim>
					<dim>1</dim>
					<dim>384</dim>
				</port>
			</output>
		</layer>
		<layer id="257" name="Constant_4283" type="Convert" version="opset1">
			<data destination_type="f32" />
			<rt_info>
				<attribute name="decompression" version="0" />
			</rt_info>
			<input>
				<port id="0" precision="FP16">
					<dim>1</dim>
					<dim>1</dim>
					<dim>384</dim>
				</port>
			</input>
			<output>
				<port id="1" precision="FP32">
					<dim>1</dim>
					<dim>1</dim>
					<dim>384</dim>
				</port>
			</output>
		</layer>
		<layer id="258" name="/0/auto_model/encoder/layer.1/attention/output/LayerNorm/Add_1" type="Add" version="opset1">
			<data auto_broadcast="numpy" />
			<input>
				<port id="0" precision="FP32">
					<dim>-1</dim>
					<dim>-1</dim>
					<dim>384</dim>
				</port>
				<port id="1" precision="FP32">
					<dim>1</dim>
					<dim>1</dim>
					<dim>384</dim>
				</port>
			</input>
			<output>
				<port id="2" precision="FP32" names="/0/auto_model/encoder/layer.1/attention/output/LayerNorm/Add_1_output_0">
					<dim>-1</dim>
					<dim>-1</dim>
					<dim>384</dim>
				</port>
			</output>
		</layer>
		<layer id="259" name="Transpose_3818_compressed" type="Const" version="opset1">
			<data element_type="f16" shape="1536, 384" offset="28604142" size="1179648" />
			<output>
				<port id="0" precision="FP16">
					<dim>1536</dim>
					<dim>384</dim>
				</port>
			</output>
		</layer>
		<layer id="260" name="Transpose_3818" type="Convert" version="opset1">
			<data destination_type="f32" />
			<rt_info>
				<attribute name="decompression" version="0" />
			</rt_info>
			<input>
				<port id="0" precision="FP16">
					<dim>1536</dim>
					<dim>384</dim>
				</port>
			</input>
			<output>
				<port id="1" precision="FP32">
					<dim>1536</dim>
					<dim>384</dim>
				</port>
			</output>
		</layer>
		<layer id="261" name="/0/auto_model/encoder/layer.1/intermediate/dense/MatMul" type="MatMul" version="opset1">
			<data transpose_a="false" transpose_b="true" />
			<input>
				<port id="0" precision="FP32">
					<dim>-1</dim>
					<dim>-1</dim>
					<dim>384</dim>
				</port>
				<port id="1" precision="FP32">
					<dim>1536</dim>
					<dim>384</dim>
				</port>
			</input>
			<output>
				<port id="2" precision="FP32" names="/0/auto_model/encoder/layer.1/intermediate/dense/MatMul_output_0">
					<dim>-1</dim>
					<dim>-1</dim>
					<dim>1536</dim>
				</port>
			</output>
		</layer>
		<layer id="262" name="/0/auto_model/encoder/layer.1/intermediate/dense/Add" type="Add" version="opset1">
			<data auto_broadcast="numpy" />
			<input>
				<port id="0" precision="FP32">
					<dim>1</dim>
					<dim>1</dim>
					<dim>1536</dim>
				</port>
				<port id="1" precision="FP32">
					<dim>-1</dim>
					<dim>-1</dim>
					<dim>1536</dim>
				</port>
			</input>
			<output>
				<port id="2" precision="FP32" names="/0/auto_model/encoder/layer.1/intermediate/dense/Add_output_0">
					<dim>-1</dim>
					<dim>-1</dim>
					<dim>1536</dim>
				</port>
			</output>
		</layer>
		<layer id="263" name="/0/auto_model/encoder/layer.1/intermediate/intermediate_act_fn/Mul_1" type="Gelu" version="opset7">
			<data approximation_mode="ERF" />
			<input>
				<port id="0" precision="FP32">
					<dim>-1</dim>
					<dim>-1</dim>
					<dim>1536</dim>
				</port>
			</input>
			<output>
				<port id="1" precision="FP32" names="/0/auto_model/encoder/layer.1/intermediate/intermediate_act_fn/Mul_1_output_0">
					<dim>-1</dim>
					<dim>-1</dim>
					<dim>1536</dim>
				</port>
			</output>
		</layer>
		<layer id="264" name="Transpose_3830_compressed" type="Const" version="opset1">
			<data element_type="f16" shape="384, 1536" offset="29783790" size="1179648" />
			<output>
				<port id="0" precision="FP16">
					<dim>384</dim>
					<dim>1536</dim>
				</port>
			</output>
		</layer>
		<layer id="265" name="Transpose_3830" type="Convert" version="opset1">
			<data destination_type="f32" />
			<rt_info>
				<attribute name="decompression" version="0" />
			</rt_info>
			<input>
				<port id="0" precision="FP16">
					<dim>384</dim>
					<dim>1536</dim>
				</port>
			</input>
			<output>
				<port id="1" precision="FP32">
					<dim>384</dim>
					<dim>1536</dim>
				</port>
			</output>
		</layer>
		<layer id="266" name="/0/auto_model/encoder/layer.1/output/dense/MatMul" type="MatMul" version="opset1">
			<data transpose_a="false" transpose_b="true" />
			<input>
				<port id="0" precision="FP32">
					<dim>-1</dim>
					<dim>-1</dim>
					<dim>1536</dim>
				</port>
				<port id="1" precision="FP32">
					<dim>384</dim>
					<dim>1536</dim>
				</port>
			</input>
			<output>
				<port id="2" precision="FP32" names="/0/auto_model/encoder/layer.1/output/dense/MatMul_output_0">
					<dim>-1</dim>
					<dim>-1</dim>
					<dim>384</dim>
				</port>
			</output>
		</layer>
		<layer id="267" name="/0/auto_model/encoder/layer.1/output/dense/Add" type="Add" version="opset1">
			<data auto_broadcast="numpy" />
			<input>
				<port id="0" precision="FP32">
					<dim>1</dim>
					<dim>1</dim>
					<dim>384</dim>
				</port>
				<port id="1" precision="FP32">
					<dim>-1</dim>
					<dim>-1</dim>
					<dim>384</dim>
				</port>
			</input>
			<output>
				<port id="2" precision="FP32" names="/0/auto_model/encoder/layer.1/output/dense/Add_output_0">
					<dim>-1</dim>
					<dim>-1</dim>
					<dim>384</dim>
				</port>
			</output>
		</layer>
		<layer id="268" name="/0/auto_model/encoder/layer.1/output/Add" type="Add" version="opset1">
			<data auto_broadcast="numpy" />
			<input>
				<port id="0" precision="FP32">
					<dim>-1</dim>
					<dim>-1</dim>
					<dim>384</dim>
				</port>
				<port id="1" precision="FP32">
					<dim>-1</dim>
					<dim>-1</dim>
					<dim>384</dim>
				</port>
			</input>
			<output>
				<port id="2" precision="FP32" names="/0/auto_model/encoder/layer.1/output/Add_output_0">
					<dim>-1</dim>
					<dim>-1</dim>
					<dim>384</dim>
				</port>
			</output>
		</layer>
		<layer id="269" name="Constant_494" type="Const" version="opset1">
			<data element_type="i64" shape="1" offset="23876144" size="8" />
			<output>
				<port id="0" precision="I64">
					<dim>1</dim>
				</port>
			</output>
		</layer>
		<layer id="270" name="/0/auto_model/encoder/layer.1/output/LayerNorm/Div" type="MVN" version="opset6">
			<data eps="9.999999960041972e-13" normalize_variance="true" eps_mode="INSIDE_SQRT" />
			<input>
				<port id="0" precision="FP32">
					<dim>-1</dim>
					<dim>-1</dim>
					<dim>384</dim>
				</port>
				<port id="1" precision="I64">
					<dim>1</dim>
				</port>
			</input>
			<output>
				<port id="2" precision="FP32" names="/0/auto_model/encoder/layer.1/output/LayerNorm/Div_output_0">
					<dim>-1</dim>
					<dim>-1</dim>
					<dim>384</dim>
				</port>
			</output>
		</layer>
		<layer id="271" name="Constant_4286_compressed" type="Const" version="opset1">
			<data element_type="f16" shape="1, 1, 384" offset="30963438" size="768" />
			<output>
				<port id="0" precision="FP16">
					<dim>1</dim>
					<dim>1</dim>
					<dim>384</dim>
				</port>
			</output>
		</layer>
		<layer id="272" name="Constant_4286" type="Convert" version="opset1">
			<data destination_type="f32" />
			<rt_info>
				<attribute name="decompression" version="0" />
			</rt_info>
			<input>
				<port id="0" precision="FP16">
					<dim>1</dim>
					<dim>1</dim>
					<dim>384</dim>
				</port>
			</input>
			<output>
				<port id="1" precision="FP32">
					<dim>1</dim>
					<dim>1</dim>
					<dim>384</dim>
				</port>
			</output>
		</layer>
		<layer id="273" name="/0/auto_model/encoder/layer.1/output/LayerNorm/Mul" type="Multiply" version="opset1">
			<data auto_broadcast="numpy" />
			<input>
				<port id="0" precision="FP32">
					<dim>-1</dim>
					<dim>-1</dim>
					<dim>384</dim>
				</port>
				<port id="1" precision="FP32">
					<dim>1</dim>
					<dim>1</dim>
					<dim>384</dim>
				</port>
			</input>
			<output>
				<port id="2" precision="FP32" names="/0/auto_model/encoder/layer.1/output/LayerNorm/Mul_output_0">
					<dim>-1</dim>
					<dim>-1</dim>
					<dim>384</dim>
				</port>
			</output>
		</layer>
		<layer id="274" name="Constant_4287_compressed" type="Const" version="opset1">
			<data element_type="f16" shape="1, 1, 384" offset="30964206" size="768" />
			<output>
				<port id="0" precision="FP16">
					<dim>1</dim>
					<dim>1</dim>
					<dim>384</dim>
				</port>
			</output>
		</layer>
		<layer id="275" name="Constant_4287" type="Convert" version="opset1">
			<data destination_type="f32" />
			<rt_info>
				<attribute name="decompression" version="0" />
			</rt_info>
			<input>
				<port id="0" precision="FP16">
					<dim>1</dim>
					<dim>1</dim>
					<dim>384</dim>
				</port>
			</input>
			<output>
				<port id="1" precision="FP32">
					<dim>1</dim>
					<dim>1</dim>
					<dim>384</dim>
				</port>
			</output>
		</layer>
		<layer id="276" name="/0/auto_model/encoder/layer.1/output/LayerNorm/Add_1" type="Add" version="opset1">
			<data auto_broadcast="numpy" />
			<input>
				<port id="0" precision="FP32">
					<dim>-1</dim>
					<dim>-1</dim>
					<dim>384</dim>
				</port>
				<port id="1" precision="FP32">
					<dim>1</dim>
					<dim>1</dim>
					<dim>384</dim>
				</port>
			</input>
			<output>
				<port id="2" precision="FP32" names="/0/auto_model/encoder/layer.1/output/LayerNorm/Add_1_output_0">
					<dim>-1</dim>
					<dim>-1</dim>
					<dim>384</dim>
				</port>
			</output>
		</layer>
		<layer id="277" name="Transpose_3848_compressed" type="Const" version="opset1">
			<data element_type="f16" shape="384, 384" offset="30964974" size="294912" />
			<output>
				<port id="0" precision="FP16">
					<dim>384</dim>
					<dim>384</dim>
				</port>
			</output>
		</layer>
		<layer id="278" name="Transpose_3848" type="Convert" version="opset1">
			<data destination_type="f32" />
			<rt_info>
				<attribute name="decompression" version="0" />
			</rt_info>
			<input>
				<port id="0" precision="FP16">
					<dim>384</dim>
					<dim>384</dim>
				</port>
			</input>
			<output>
				<port id="1" precision="FP32">
					<dim>384</dim>
					<dim>384</dim>
				</port>
			</output>
		</layer>
		<layer id="279" name="/0/auto_model/encoder/layer.2/attention/self/query/MatMul" type="MatMul" version="opset1">
			<data transpose_a="false" transpose_b="true" />
			<input>
				<port id="0" precision="FP32">
					<dim>-1</dim>
					<dim>-1</dim>
					<dim>384</dim>
				</port>
				<port id="1" precision="FP32">
					<dim>384</dim>
					<dim>384</dim>
				</port>
			</input>
			<output>
				<port id="2" precision="FP32" names="/0/auto_model/encoder/layer.2/attention/self/query/MatMul_output_0">
					<dim>-1</dim>
					<dim>-1</dim>
					<dim>384</dim>
				</port>
			</output>
		</layer>
		<layer id="280" name="/0/auto_model/encoder/layer.2/attention/self/query/Add" type="Add" version="opset1">
			<data auto_broadcast="numpy" />
			<input>
				<port id="0" precision="FP32">
					<dim>1</dim>
					<dim>1</dim>
					<dim>384</dim>
				</port>
				<port id="1" precision="FP32">
					<dim>-1</dim>
					<dim>-1</dim>
					<dim>384</dim>
				</port>
			</input>
			<output>
				<port id="2" precision="FP32" names="/0/auto_model/encoder/layer.2/attention/self/query/Add_output_0">
					<dim>-1</dim>
					<dim>-1</dim>
					<dim>384</dim>
				</port>
			</output>
		</layer>
		<layer id="281" name="/0/auto_model/encoder/layer.2/attention/self/Concat" type="Const" version="opset1">
			<data element_type="i64" shape="4" offset="24172600" size="32" />
			<rt_info>
				<attribute name="precise" version="0" />
			</rt_info>
			<output>
				<port id="0" precision="I64">
					<dim>4</dim>
				</port>
			</output>
		</layer>
		<layer id="282" name="/0/auto_model/encoder/layer.2/attention/self/Reshape" type="Reshape" version="opset1">
			<data special_zero="true" />
			<input>
				<port id="0" precision="FP32">
					<dim>-1</dim>
					<dim>-1</dim>
					<dim>384</dim>
				</port>
				<port id="1" precision="I64">
					<dim>4</dim>
				</port>
			</input>
			<output>
				<port id="2" precision="FP32" names="/0/auto_model/encoder/layer.2/attention/self/Reshape_output_0">
					<dim>-1</dim>
					<dim>-1</dim>
					<dim>12</dim>
					<dim>32</dim>
				</port>
			</output>
		</layer>
		<layer id="283" name="Constant_533" type="Const" version="opset1">
			<data element_type="i64" shape="4" offset="24172632" size="32" />
			<output>
				<port id="0" precision="I64">
					<dim>4</dim>
				</port>
			</output>
		</layer>
		<layer id="284" name="/0/auto_model/encoder/layer.2/attention/self/Transpose" type="Transpose" version="opset1">
			<input>
				<port id="0" precision="FP32">
					<dim>-1</dim>
					<dim>-1</dim>
					<dim>12</dim>
					<dim>32</dim>
				</port>
				<port id="1" precision="I64">
					<dim>4</dim>
				</port>
			</input>
			<output>
				<port id="2" precision="FP32" names="/0/auto_model/encoder/layer.2/attention/self/Transpose_output_0">
					<dim>-1</dim>
					<dim>12</dim>
					<dim>-1</dim>
					<dim>32</dim>
				</port>
			</output>
		</layer>
		<layer id="285" name="/0/auto_model/encoder/layer.2/attention/self/Constant_16_compressed" type="Const" version="opset1">
			<data element_type="f16" shape="1" offset="24172664" size="2" />
			<output>
				<port id="0" precision="FP16" names="/0/auto_model/encoder/layer.2/attention/self/Constant_16_output_0">
					<dim>1</dim>
				</port>
			</output>
		</layer>
		<layer id="286" name="/0/auto_model/encoder/layer.2/attention/self/Constant_16" type="Convert" version="opset1">
			<data destination_type="f32" />
			<rt_info>
				<attribute name="decompression" version="0" />
			</rt_info>
			<input>
				<port id="0" precision="FP16">
					<dim>1</dim>
				</port>
			</input>
			<output>
				<port id="1" precision="FP32">
					<dim>1</dim>
				</port>
			</output>
		</layer>
		<layer id="287" name="/0/auto_model/encoder/layer.2/attention/self/Shape_8" type="ShapeOf" version="opset3">
			<data output_type="i64" />
			<input>
				<port id="0" precision="FP32">
					<dim>-1</dim>
					<dim>12</dim>
					<dim>-1</dim>
					<dim>32</dim>
				</port>
			</input>
			<output>
				<port id="1" precision="I64" names="/0/auto_model/encoder/layer.2/attention/self/Shape_8_output_0">
					<dim>4</dim>
				</port>
			</output>
		</layer>
		<layer id="288" name="/0/auto_model/encoder/layer.2/attention/self/Constant_14" type="Const" version="opset1">
			<data element_type="i64" shape="1" offset="23876144" size="8" />
			<output>
				<port id="0" precision="I64" names="/0/auto_model/encoder/layer.2/attention/self/Constant_14_output_0">
					<dim>1</dim>
				</port>
			</output>
		</layer>
		<layer id="289" name="/0/auto_model/encoder/layer.2/attention/self/Constant_15" type="Const" version="opset1">
			<data element_type="i64" shape="1" offset="24172666" size="8" />
			<output>
				<port id="0" precision="I64" names="/0/auto_model/encoder/layer.2/attention/self/Constant_15_output_0">
					<dim>1</dim>
				</port>
			</output>
		</layer>
		<layer id="290" name="Broadcast_578" type="Const" version="opset1">
			<data element_type="i64" shape="1" offset="23478792" size="8" />
			<output>
				<port id="0" precision="I64">
					<dim>1</dim>
				</port>
			</output>
		</layer>
		<layer id="291" name="Constant_582" type="Const" version="opset1">
			<data element_type="i64" shape="1" offset="23473152" size="8" />
			<output>
				<port id="0" precision="I64">
					<dim>1</dim>
				</port>
			</output>
		</layer>
		<layer id="292" name="/0/auto_model/encoder/layer.2/attention/self/Slice" type="Slice" version="opset8">
			<input>
				<port id="0" precision="I64">
					<dim>4</dim>
				</port>
				<port id="1" precision="I64">
					<dim>1</dim>
				</port>
				<port id="2" precision="I64">
					<dim>1</dim>
				</port>
				<port id="3" precision="I64">
					<dim>1</dim>
				</port>
				<port id="4" precision="I64">
					<dim>1</dim>
				</port>
			</input>
			<output>
				<port id="5" precision="I64" names="/0/auto_model/encoder/layer.2/attention/self/Slice_output_0">
					<dim>1</dim>
				</port>
			</output>
		</layer>
		<layer id="293" name="/0/auto_model/encoder/layer.2/attention/self/Cast" type="Convert" version="opset1">
			<data destination_type="f32" />
			<input>
				<port id="0" precision="I64">
					<dim>1</dim>
				</port>
			</input>
			<output>
				<port id="1" precision="FP32" names="/0/auto_model/encoder/layer.2/attention/self/Cast_output_0">
					<dim>1</dim>
				</port>
			</output>
		</layer>
		<layer id="294" name="/0/auto_model/encoder/layer.2/attention/self/Sqrt" type="Sqrt" version="opset1">
			<input>
				<port id="0" precision="FP32">
					<dim>1</dim>
				</port>
			</input>
			<output>
				<port id="1" precision="FP32" names="/0/auto_model/encoder/layer.2/attention/self/Sqrt_output_0">
					<dim>1</dim>
				</port>
			</output>
		</layer>
		<layer id="295" name="/0/auto_model/encoder/layer.2/attention/self/Div" type="Divide" version="opset1">
			<data auto_broadcast="numpy" m_pythondiv="true" />
			<input>
				<port id="0" precision="FP32">
					<dim>1</dim>
				</port>
				<port id="1" precision="FP32">
					<dim>1</dim>
				</port>
			</input>
			<output>
				<port id="2" precision="FP32" names="/0/auto_model/encoder/layer.2/attention/self/Cast_1_output_0,/0/auto_model/encoder/layer.2/attention/self/Div_output_0">
					<dim>1</dim>
				</port>
			</output>
		</layer>
		<layer id="296" name="/0/auto_model/encoder/layer.2/attention/self/Sqrt_1" type="Sqrt" version="opset1">
			<input>
				<port id="0" precision="FP32">
					<dim>1</dim>
				</port>
			</input>
			<output>
				<port id="1" precision="FP32" names="/0/auto_model/encoder/layer.2/attention/self/Sqrt_1_output_0,/0/auto_model/encoder/layer.2/attention/self/Sqrt_2_output_0">
					<dim>1</dim>
				</port>
			</output>
		</layer>
		<layer id="297" name="/0/auto_model/encoder/layer.2/attention/self/Mul" type="Multiply" version="opset1">
			<data auto_broadcast="numpy" />
			<input>
				<port id="0" precision="FP32">
					<dim>-1</dim>
					<dim>12</dim>
					<dim>-1</dim>
					<dim>32</dim>
				</port>
				<port id="1" precision="FP32">
					<dim>1</dim>
				</port>
			</input>
			<output>
				<port id="2" precision="FP32" names="/0/auto_model/encoder/layer.2/attention/self/Mul_output_0">
					<dim>-1</dim>
					<dim>12</dim>
					<dim>-1</dim>
					<dim>32</dim>
				</port>
			</output>
		</layer>
		<layer id="298" name="Constant_4289_compressed" type="Const" version="opset1">
			<data element_type="f16" shape="1, 1, 384" offset="31259886" size="768" />
			<output>
				<port id="0" precision="FP16">
					<dim>1</dim>
					<dim>1</dim>
					<dim>384</dim>
				</port>
			</output>
		</layer>
		<layer id="299" name="Constant_4289" type="Convert" version="opset1">
			<data destination_type="f32" />
			<rt_info>
				<attribute name="decompression" version="0" />
			</rt_info>
			<input>
				<port id="0" precision="FP16">
					<dim>1</dim>
					<dim>1</dim>
					<dim>384</dim>
				</port>
			</input>
			<output>
				<port id="1" precision="FP32">
					<dim>1</dim>
					<dim>1</dim>
					<dim>384</dim>
				</port>
			</output>
		</layer>
		<layer id="300" name="Transpose_3857_compressed" type="Const" version="opset1">
			<data element_type="f16" shape="384, 384" offset="31260654" size="294912" />
			<output>
				<port id="0" precision="FP16">
					<dim>384</dim>
					<dim>384</dim>
				</port>
			</output>
		</layer>
		<layer id="301" name="Transpose_3857" type="Convert" version="opset1">
			<data destination_type="f32" />
			<rt_info>
				<attribute name="decompression" version="0" />
			</rt_info>
			<input>
				<port id="0" precision="FP16">
					<dim>384</dim>
					<dim>384</dim>
				</port>
			</input>
			<output>
				<port id="1" precision="FP32">
					<dim>384</dim>
					<dim>384</dim>
				</port>
			</output>
		</layer>
		<layer id="302" name="/0/auto_model/encoder/layer.2/attention/self/key/MatMul" type="MatMul" version="opset1">
			<data transpose_a="false" transpose_b="true" />
			<input>
				<port id="0" precision="FP32">
					<dim>-1</dim>
					<dim>-1</dim>
					<dim>384</dim>
				</port>
				<port id="1" precision="FP32">
					<dim>384</dim>
					<dim>384</dim>
				</port>
			</input>
			<output>
				<port id="2" precision="FP32" names="/0/auto_model/encoder/layer.2/attention/self/key/MatMul_output_0">
					<dim>-1</dim>
					<dim>-1</dim>
					<dim>384</dim>
				</port>
			</output>
		</layer>
		<layer id="303" name="/0/auto_model/encoder/layer.2/attention/self/key/Add" type="Add" version="opset1">
			<data auto_broadcast="numpy" />
			<input>
				<port id="0" precision="FP32">
					<dim>1</dim>
					<dim>1</dim>
					<dim>384</dim>
				</port>
				<port id="1" precision="FP32">
					<dim>-1</dim>
					<dim>-1</dim>
					<dim>384</dim>
				</port>
			</input>
			<output>
				<port id="2" precision="FP32" names="/0/auto_model/encoder/layer.2/attention/self/key/Add_output_0">
					<dim>-1</dim>
					<dim>-1</dim>
					<dim>384</dim>
				</port>
			</output>
		</layer>
		<layer id="304" name="/0/auto_model/encoder/layer.2/attention/self/Concat_1" type="Const" version="opset1">
			<data element_type="i64" shape="4" offset="24172600" size="32" />
			<rt_info>
				<attribute name="precise" version="0" />
			</rt_info>
			<output>
				<port id="0" precision="I64">
					<dim>4</dim>
				</port>
			</output>
		</layer>
		<layer id="305" name="/0/auto_model/encoder/layer.2/attention/self/Reshape_1" type="Reshape" version="opset1">
			<data special_zero="true" />
			<input>
				<port id="0" precision="FP32">
					<dim>-1</dim>
					<dim>-1</dim>
					<dim>384</dim>
				</port>
				<port id="1" precision="I64">
					<dim>4</dim>
				</port>
			</input>
			<output>
				<port id="2" precision="FP32" names="/0/auto_model/encoder/layer.2/attention/self/Reshape_1_output_0">
					<dim>-1</dim>
					<dim>-1</dim>
					<dim>12</dim>
					<dim>32</dim>
				</port>
			</output>
		</layer>
		<layer id="306" name="Constant_589" type="Const" version="opset1">
			<data element_type="i64" shape="4" offset="24468354" size="32" />
			<output>
				<port id="0" precision="I64">
					<dim>4</dim>
				</port>
			</output>
		</layer>
		<layer id="307" name="/0/auto_model/encoder/layer.2/attention/self/Transpose_2" type="Transpose" version="opset1">
			<input>
				<port id="0" precision="FP32">
					<dim>-1</dim>
					<dim>-1</dim>
					<dim>12</dim>
					<dim>32</dim>
				</port>
				<port id="1" precision="I64">
					<dim>4</dim>
				</port>
			</input>
			<output>
				<port id="2" precision="FP32" names="/0/auto_model/encoder/layer.2/attention/self/Transpose_2_output_0">
					<dim>-1</dim>
					<dim>12</dim>
					<dim>32</dim>
					<dim>-1</dim>
				</port>
			</output>
		</layer>
		<layer id="308" name="/0/auto_model/encoder/layer.2/attention/self/Mul_1" type="Multiply" version="opset1">
			<data auto_broadcast="numpy" />
			<input>
				<port id="0" precision="FP32">
					<dim>-1</dim>
					<dim>12</dim>
					<dim>32</dim>
					<dim>-1</dim>
				</port>
				<port id="1" precision="FP32">
					<dim>1</dim>
				</port>
			</input>
			<output>
				<port id="2" precision="FP32" names="/0/auto_model/encoder/layer.2/attention/self/Mul_1_output_0">
					<dim>-1</dim>
					<dim>12</dim>
					<dim>32</dim>
					<dim>-1</dim>
				</port>
			</output>
		</layer>
		<layer id="309" name="/0/auto_model/encoder/layer.2/attention/self/MatMul" type="MatMul" version="opset1">
			<data transpose_a="false" transpose_b="false" />
			<input>
				<port id="0" precision="FP32">
					<dim>-1</dim>
					<dim>12</dim>
					<dim>-1</dim>
					<dim>32</dim>
				</port>
				<port id="1" precision="FP32">
					<dim>-1</dim>
					<dim>12</dim>
					<dim>32</dim>
					<dim>-1</dim>
				</port>
			</input>
			<output>
				<port id="2" precision="FP32" names="/0/auto_model/encoder/layer.2/attention/self/MatMul_output_0">
					<dim>-1</dim>
					<dim>12</dim>
					<dim>-1</dim>
					<dim>-1</dim>
				</port>
			</output>
		</layer>
		<layer id="310" name="/0/auto_model/encoder/layer.2/attention/self/Add" type="Add" version="opset1">
			<data auto_broadcast="numpy" />
			<input>
				<port id="0" precision="FP32">
					<dim>-1</dim>
					<dim>12</dim>
					<dim>-1</dim>
					<dim>-1</dim>
				</port>
				<port id="1" precision="FP32">
					<dim>-1</dim>
					<dim>1</dim>
					<dim>-1</dim>
					<dim>-1</dim>
				</port>
			</input>
			<output>
				<port id="2" precision="FP32" names="/0/auto_model/encoder/layer.2/attention/self/Add_output_0">
					<dim>-1</dim>
					<dim>12</dim>
					<dim>-1</dim>
					<dim>-1</dim>
				</port>
			</output>
		</layer>
		<layer id="311" name="/0/auto_model/encoder/layer.2/attention/self/Softmax" type="SoftMax" version="opset8">
			<data axis="-1" />
			<input>
				<port id="0" precision="FP32">
					<dim>-1</dim>
					<dim>12</dim>
					<dim>-1</dim>
					<dim>-1</dim>
				</port>
			</input>
			<output>
				<port id="1" precision="FP32" names="/0/auto_model/encoder/layer.2/attention/self/Softmax_output_0">
					<dim>-1</dim>
					<dim>12</dim>
					<dim>-1</dim>
					<dim>-1</dim>
				</port>
			</output>
		</layer>
		<layer id="312" name="Constant_4290_compressed" type="Const" version="opset1">
			<data element_type="f16" shape="1, 1, 384" offset="31555566" size="768" />
			<output>
				<port id="0" precision="FP16">
					<dim>1</dim>
					<dim>1</dim>
					<dim>384</dim>
				</port>
			</output>
		</layer>
		<layer id="313" name="Constant_4290" type="Convert" version="opset1">
			<data destination_type="f32" />
			<rt_info>
				<attribute name="decompression" version="0" />
			</rt_info>
			<input>
				<port id="0" precision="FP16">
					<dim>1</dim>
					<dim>1</dim>
					<dim>384</dim>
				</port>
			</input>
			<output>
				<port id="1" precision="FP32">
					<dim>1</dim>
					<dim>1</dim>
					<dim>384</dim>
				</port>
			</output>
		</layer>
		<layer id="314" name="Transpose_3868_compressed" type="Const" version="opset1">
			<data element_type="f16" shape="384, 384" offset="31556334" size="294912" />
			<output>
				<port id="0" precision="FP16">
					<dim>384</dim>
					<dim>384</dim>
				</port>
			</output>
		</layer>
		<layer id="315" name="Transpose_3868" type="Convert" version="opset1">
			<data destination_type="f32" />
			<rt_info>
				<attribute name="decompression" version="0" />
			</rt_info>
			<input>
				<port id="0" precision="FP16">
					<dim>384</dim>
					<dim>384</dim>
				</port>
			</input>
			<output>
				<port id="1" precision="FP32">
					<dim>384</dim>
					<dim>384</dim>
				</port>
			</output>
		</layer>
		<layer id="316" name="/0/auto_model/encoder/layer.2/attention/self/value/MatMul" type="MatMul" version="opset1">
			<data transpose_a="false" transpose_b="true" />
			<input>
				<port id="0" precision="FP32">
					<dim>-1</dim>
					<dim>-1</dim>
					<dim>384</dim>
				</port>
				<port id="1" precision="FP32">
					<dim>384</dim>
					<dim>384</dim>
				</port>
			</input>
			<output>
				<port id="2" precision="FP32" names="/0/auto_model/encoder/layer.2/attention/self/value/MatMul_output_0">
					<dim>-1</dim>
					<dim>-1</dim>
					<dim>384</dim>
				</port>
			</output>
		</layer>
		<layer id="317" name="/0/auto_model/encoder/layer.2/attention/self/value/Add" type="Add" version="opset1">
			<data auto_broadcast="numpy" />
			<input>
				<port id="0" precision="FP32">
					<dim>1</dim>
					<dim>1</dim>
					<dim>384</dim>
				</port>
				<port id="1" precision="FP32">
					<dim>-1</dim>
					<dim>-1</dim>
					<dim>384</dim>
				</port>
			</input>
			<output>
				<port id="2" precision="FP32" names="/0/auto_model/encoder/layer.2/attention/self/value/Add_output_0">
					<dim>-1</dim>
					<dim>-1</dim>
					<dim>384</dim>
				</port>
			</output>
		</layer>
		<layer id="318" name="/0/auto_model/encoder/layer.2/attention/self/Concat_2" type="Const" version="opset1">
			<data element_type="i64" shape="4" offset="24172600" size="32" />
			<rt_info>
				<attribute name="precise" version="0" />
			</rt_info>
			<output>
				<port id="0" precision="I64">
					<dim>4</dim>
				</port>
			</output>
		</layer>
		<layer id="319" name="/0/auto_model/encoder/layer.2/attention/self/Reshape_2" type="Reshape" version="opset1">
			<data special_zero="true" />
			<input>
				<port id="0" precision="FP32">
					<dim>-1</dim>
					<dim>-1</dim>
					<dim>384</dim>
				</port>
				<port id="1" precision="I64">
					<dim>4</dim>
				</port>
			</input>
			<output>
				<port id="2" precision="FP32" names="/0/auto_model/encoder/layer.2/attention/self/Reshape_2_output_0">
					<dim>-1</dim>
					<dim>-1</dim>
					<dim>12</dim>
					<dim>32</dim>
				</port>
			</output>
		</layer>
		<layer id="320" name="Constant_571" type="Const" version="opset1">
			<data element_type="i64" shape="4" offset="24172632" size="32" />
			<output>
				<port id="0" precision="I64">
					<dim>4</dim>
				</port>
			</output>
		</layer>
		<layer id="321" name="/0/auto_model/encoder/layer.2/attention/self/Transpose_1" type="Transpose" version="opset1">
			<input>
				<port id="0" precision="FP32">
					<dim>-1</dim>
					<dim>-1</dim>
					<dim>12</dim>
					<dim>32</dim>
				</port>
				<port id="1" precision="I64">
					<dim>4</dim>
				</port>
			</input>
			<output>
				<port id="2" precision="FP32" names="/0/auto_model/encoder/layer.2/attention/self/Transpose_1_output_0">
					<dim>-1</dim>
					<dim>12</dim>
					<dim>-1</dim>
					<dim>32</dim>
				</port>
			</output>
		</layer>
		<layer id="322" name="/0/auto_model/encoder/layer.2/attention/self/MatMul_1" type="MatMul" version="opset1">
			<data transpose_a="false" transpose_b="false" />
			<input>
				<port id="0" precision="FP32">
					<dim>-1</dim>
					<dim>12</dim>
					<dim>-1</dim>
					<dim>-1</dim>
				</port>
				<port id="1" precision="FP32">
					<dim>-1</dim>
					<dim>12</dim>
					<dim>-1</dim>
					<dim>32</dim>
				</port>
			</input>
			<output>
				<port id="2" precision="FP32" names="/0/auto_model/encoder/layer.2/attention/self/MatMul_1_output_0">
					<dim>-1</dim>
					<dim>12</dim>
					<dim>-1</dim>
					<dim>32</dim>
				</port>
			</output>
		</layer>
		<layer id="323" name="Constant_599" type="Const" version="opset1">
			<data element_type="i64" shape="4" offset="24172632" size="32" />
			<output>
				<port id="0" precision="I64">
					<dim>4</dim>
				</port>
			</output>
		</layer>
		<layer id="324" name="/0/auto_model/encoder/layer.2/attention/self/Transpose_3" type="Transpose" version="opset1">
			<input>
				<port id="0" precision="FP32">
					<dim>-1</dim>
					<dim>12</dim>
					<dim>-1</dim>
					<dim>32</dim>
				</port>
				<port id="1" precision="I64">
					<dim>4</dim>
				</port>
			</input>
			<output>
				<port id="2" precision="FP32" names="/0/auto_model/encoder/layer.2/attention/self/Transpose_3_output_0">
					<dim>-1</dim>
					<dim>-1</dim>
					<dim>12</dim>
					<dim>32</dim>
				</port>
			</output>
		</layer>
		<layer id="325" name="/0/auto_model/encoder/layer.2/attention/self/Reshape_3" type="Reshape" version="opset1">
			<data special_zero="true" />
			<input>
				<port id="0" precision="FP32">
					<dim>-1</dim>
					<dim>-1</dim>
					<dim>12</dim>
					<dim>32</dim>
				</port>
				<port id="1" precision="I64">
					<dim>3</dim>
				</port>
			</input>
			<output>
				<port id="2" precision="FP32" names="/0/auto_model/encoder/layer.2/attention/self/Reshape_3_output_0">
					<dim>-1</dim>
					<dim>-1</dim>
					<dim>384</dim>
				</port>
			</output>
		</layer>
		<layer id="326" name="Transpose_3875_compressed" type="Const" version="opset1">
			<data element_type="f16" shape="384, 384" offset="31851246" size="294912" />
			<output>
				<port id="0" precision="FP16">
					<dim>384</dim>
					<dim>384</dim>
				</port>
			</output>
		</layer>
		<layer id="327" name="Transpose_3875" type="Convert" version="opset1">
			<data destination_type="f32" />
			<rt_info>
				<attribute name="decompression" version="0" />
			</rt_info>
			<input>
				<port id="0" precision="FP16">
					<dim>384</dim>
					<dim>384</dim>
				</port>
			</input>
			<output>
				<port id="1" precision="FP32">
					<dim>384</dim>
					<dim>384</dim>
				</port>
			</output>
		</layer>
		<layer id="328" name="/0/auto_model/encoder/layer.2/attention/output/dense/MatMul" type="MatMul" version="opset1">
			<data transpose_a="false" transpose_b="true" />
			<input>
				<port id="0" precision="FP32">
					<dim>-1</dim>
					<dim>-1</dim>
					<dim>384</dim>
				</port>
				<port id="1" precision="FP32">
					<dim>384</dim>
					<dim>384</dim>
				</port>
			</input>
			<output>
				<port id="2" precision="FP32" names="/0/auto_model/encoder/layer.2/attention/output/dense/MatMul_output_0">
					<dim>-1</dim>
					<dim>-1</dim>
					<dim>384</dim>
				</port>
			</output>
		</layer>
		<layer id="329" name="/0/auto_model/encoder/layer.2/attention/output/dense/Add" type="Add" version="opset1">
			<data auto_broadcast="numpy" />
			<input>
				<port id="0" precision="FP32">
					<dim>1</dim>
					<dim>1</dim>
					<dim>384</dim>
				</port>
				<port id="1" precision="FP32">
					<dim>-1</dim>
					<dim>-1</dim>
					<dim>384</dim>
				</port>
			</input>
			<output>
				<port id="2" precision="FP32" names="/0/auto_model/encoder/layer.2/attention/output/dense/Add_output_0">
					<dim>-1</dim>
					<dim>-1</dim>
					<dim>384</dim>
				</port>
			</output>
		</layer>
		<layer id="330" name="/0/auto_model/encoder/layer.2/attention/output/Add" type="Add" version="opset1">
			<data auto_broadcast="numpy" />
			<input>
				<port id="0" precision="FP32">
					<dim>-1</dim>
					<dim>-1</dim>
					<dim>384</dim>
				</port>
				<port id="1" precision="FP32">
					<dim>-1</dim>
					<dim>-1</dim>
					<dim>384</dim>
				</port>
			</input>
			<output>
				<port id="2" precision="FP32" names="/0/auto_model/encoder/layer.2/attention/output/Add_output_0">
					<dim>-1</dim>
					<dim>-1</dim>
					<dim>384</dim>
				</port>
			</output>
		</layer>
		<layer id="331" name="Constant_611_1" type="Const" version="opset1">
			<data element_type="i64" shape="1" offset="23876144" size="8" />
			<output>
				<port id="0" precision="I64">
					<dim>1</dim>
				</port>
			</output>
		</layer>
		<layer id="332" name="/0/auto_model/encoder/layer.2/attention/output/LayerNorm/Div" type="MVN" version="opset6">
			<data eps="9.999999960041972e-13" normalize_variance="true" eps_mode="INSIDE_SQRT" />
			<input>
				<port id="0" precision="FP32">
…
				<port id="0" precision="FP32">
					<dim>-1</dim>
					<dim>384</dim>
				</port>
				<port id="1" precision="FP32">
					<dim>-1</dim>
					<dim>384</dim>
				</port>
			</input>
			<output>
				<port id="2" precision="FP32" names="/1/Concat_1_output_0,/1/Div_output_0">
					<dim>-1</dim>
					<dim>384</dim>
				</port>
			</output>
		</layer>
		<layer id="611" name="Constant_1133" type="Const" version="opset1">
			<data element_type="i64" shape="1" offset="23478792" size="8" />
			<output>
				<port id="0" precision="I64">
					<dim>1</dim>
				</port>
			</output>
		</layer>
		<layer id="612" name="/2/ReduceL2" type="ReduceL2" version="opset4">
			<data keep_dims="true" />
			<input>
				<port id="0" precision="FP32">
					<dim>-1</dim>
					<dim>384</dim>
				</port>
				<port id="1" precision="I64">
					<dim>1</dim>
				</port>
			</input>
			<output>
				<port id="2" precision="FP32" names="/2/ReduceL2_output_0">
					<dim>-1</dim>
					<dim>1</dim>
				</port>
			</output>
		</layer>
		<layer id="613" name="/2/Clip" type="Clamp" version="opset1">
			<data min="9.999999960041972e-13" max="3.4028234663852886e+38" />
			<input>
				<port id="0" precision="FP32">
					<dim>-1</dim>
					<dim>1</dim>
				</port>
			</input>
			<output>
				<port id="1" precision="FP32" names="/2/Clip_output_0,/2/Expand_output_0">
					<dim>-1</dim>
					<dim>1</dim>
				</port>
			</output>
		</layer>
		<layer id="614" name="sentence_embedding" type="Divide" version="opset1">
			<data auto_broadcast="numpy" m_pythondiv="true" />
			<input>
				<port id="0" precision="FP32">
					<dim>-1</dim>
					<dim>384</dim>
				</port>
				<port id="1" precision="FP32">
					<dim>-1</dim>
					<dim>1</dim>
				</port>
			</input>
			<output>
				<port id="2" precision="FP32" names="sentence_embedding">
					<dim>-1</dim>
					<dim>384</dim>
				</port>
			</output>
		</layer>
		<layer id="616" name="token_embeddings/sink_port_0" type="Result" version="opset1">
			<input>
				<port id="0" precision="FP32">
					<dim>-1</dim>
					<dim>-1</dim>
					<dim>384</dim>
				</port>
			</input>
		</layer>
		<layer id="615" name="sentence_embedding/sink_port_0" type="Result" version="opset1">
			<input>
				<port id="0" precision="FP32">
					<dim>-1</dim>
					<dim>384</dim>
				</port>
			</input>
		</layer>
	</layers>
	<edges>
		<edge from-layer="0" from-port="0" to-layer="130" to-port="0" />
		<edge from-layer="0" from-port="0" to-layer="598" to-port="0" />
		<edge from-layer="0" from-port="0" to-layer="127" to-port="0" />
		<edge from-layer="1" from-port="0" to-layer="58" to-port="0" />
		<edge from-layer="1" from-port="0" to-layer="53" to-port="1" />
		<edge from-layer="2" from-port="0" to-layer="3" to-port="0" />
		<edge from-layer="3" from-port="1" to-layer="587" to-port="0" />
		<edge from-layer="4" from-port="0" to-layer="5" to-port="0" />
		<edge from-layer="5" from-port="1" to-layer="582" to-port="0" />
		<edge from-layer="6" from-port="0" to-layer="7" to-port="0" />
		<edge from-layer="7" from-port="1" to-layer="569" to-port="0" />
		<edge from-layer="8" from-port="0" to-layer="9" to-port="0" />
		<edge from-layer="9" from-port="1" to-layer="520" to-port="0" />
		<edge from-layer="10" from-port="0" to-layer="11" to-port="0" />
		<edge from-layer="11" from-port="1" to-layer="507" to-port="0" />
		<edge from-layer="12" from-port="0" to-layer="13" to-port="0" />
		<edge from-layer="13" from-port="1" to-layer="502" to-port="0" />
		<edge from-layer="14" from-port="0" to-layer="15" to-port="0" />
		<edge from-layer="15" from-port="1" to-layer="489" to-port="0" />
		<edge from-layer="16" from-port="0" to-layer="17" to-port="0" />
		<edge from-layer="17" from-port="1" to-layer="440" to-port="0" />
		<edge from-layer="18" from-port="0" to-layer="19" to-port="0" />
		<edge from-layer="19" from-port="1" to-layer="427" to-port="0" />
		<edge from-layer="20" from-port="0" to-layer="21" to-port="0" />
		<edge from-layer="21" from-port="1" to-layer="422" to-port="0" />
		<edge from-layer="22" from-port="0" to-layer="23" to-port="0" />
		<edge from-layer="23" from-port="1" to-layer="409" to-port="0" />
		<edge from-layer="24" from-port="0" to-layer="25" to-port="0" />
		<edge from-layer="25" from-port="1" to-layer="360" to-port="0" />
		<edge from-layer="26" from-port="0" to-layer="27" to-port="0" />
		<edge from-layer="27" from-port="1" to-layer="347" to-port="0" />
		<edge from-layer="28" from-port="0" to-layer="29" to-port="0" />
		<edge from-layer="29" from-port="1" to-layer="342" to-port="0" />
		<edge from-layer="30" from-port="0" to-layer="31" to-port="0" />
		<edge from-layer="31" from-port="1" to-layer="329" to-port="0" />
		<edge from-layer="32" from-port="0" to-layer="33" to-port="0" />
		<edge from-layer="33" from-port="1" to-layer="280" to-port="0" />
		<edge from-layer="34" from-port="0" to-layer="35" to-port="0" />
		<edge from-layer="35" from-port="1" to-layer="267" to-port="0" />
		<edge from-layer="36" from-port="0" to-layer="37" to-port="0" />
		<edge from-layer="37" from-port="1" to-layer="262" to-port="0" />
		<edge from-layer="38" from-port="0" to-layer="39" to-port="0" />
		<edge from-layer="39" from-port="1" to-layer="249" to-port="0" />
		<edge from-layer="40" from-port="0" to-layer="41" to-port="0" />
		<edge from-layer="41" from-port="1" to-layer="200" to-port="0" />
		<edge from-layer="42" from-port="0" to-layer="43" to-port="0" />
		<edge from-layer="43" from-port="1" to-layer="187" to-port="0" />
		<edge from-layer="44" from-port="0" to-layer="45" to-port="0" />
		<edge from-layer="45" from-port="1" to-layer="182" to-port="0" />
		<edge from-layer="46" from-port="0" to-layer="47" to-port="0" />
		<edge from-layer="47" from-port="1" to-layer="169" to-port="0" />
		<edge from-layer="48" from-port="0" to-layer="49" to-port="0" />
		<edge from-layer="49" from-port="1" to-layer="94" to-port="0" />
		<edge from-layer="50" from-port="0" to-layer="51" to-port="0" />
		<edge from-layer="51" from-port="1" to-layer="53" to-port="0" />
		<edge from-layer="52" from-port="0" to-layer="53" to-port="2" />
		<edge from-layer="53" from-port="3" to-layer="72" to-port="0" />
		<edge from-layer="54" from-port="0" to-layer="55" to-port="0" />
		<edge from-layer="55" from-port="1" to-layer="71" to-port="0" />
		<edge from-layer="56" from-port="0" to-layer="64" to-port="0" />
		<edge from-layer="57" from-port="0" to-layer="64" to-port="1" />
		<edge from-layer="58" from-port="1" to-layer="61" to-port="0" />
		<edge from-layer="58" from-port="1" to-layer="66" to-port="0" />
		<edge from-layer="58" from-port="1" to-layer="68" to-port="2" />
		<edge from-layer="59" from-port="0" to-layer="61" to-port="1" />
		<edge from-layer="60" from-port="0" to-layer="61" to-port="2" />
		<edge from-layer="61" from-port="3" to-layer="64" to-port="2" />
		<edge from-layer="61" from-port="3" to-layer="79" to-port="2" />
		<edge from-layer="61" from-port="3" to-layer="138" to-port="2" />
		<edge from-layer="62" from-port="0" to-layer="64" to-port="3" />
		<edge from-layer="63" from-port="0" to-layer="64" to-port="4" />
		<edge from-layer="64" from-port="5" to-layer="69" to-port="0" />
		<edge from-layer="65" from-port="0" to-layer="66" to-port="1" />
		<edge from-layer="66" from-port="2" to-layer="68" to-port="0" />
		<edge from-layer="67" from-port="0" to-layer="68" to-port="1" />
		<edge from-layer="68" from-port="3" to-layer="69" to-port="1" />
		<edge from-layer="69" from-port="2" to-layer="71" to-port="1" />
		<edge from-layer="70" from-port="0" to-layer="71" to-port="2" />
		<edge from-layer="71" from-port="3" to-layer="72" to-port="1" />
		<edge from-layer="72" from-port="2" to-layer="82" to-port="0" />
		<edge from-layer="73" from-port="0" to-layer="74" to-port="0" />
		<edge from-layer="74" from-port="1" to-layer="81" to-port="0" />
		<edge from-layer="75" from-port="0" to-layer="79" to-port="0" />
		<edge from-layer="76" from-port="0" to-layer="79" to-port="1" />
		<edge from-layer="77" from-port="0" to-layer="79" to-port="3" />
		<edge from-layer="78" from-port="0" to-layer="79" to-port="4" />
		<edge from-layer="79" from-port="5" to-layer="81" to-port="1" />
		<edge from-layer="80" from-port="0" to-layer="81" to-port="2" />
		<edge from-layer="81" from-port="3" to-layer="82" to-port="1" />
		<edge from-layer="82" from-port="2" to-layer="84" to-port="0" />
		<edge from-layer="83" from-port="0" to-layer="84" to-port="1" />
		<edge from-layer="84" from-port="2" to-layer="87" to-port="0" />
		<edge from-layer="85" from-port="0" to-layer="86" to-port="0" />
		<edge from-layer="86" from-port="1" to-layer="87" to-port="1" />
		<edge from-layer="87" from-port="2" to-layer="90" to-port="0" />
		<edge from-layer="88" from-port="0" to-layer="89" to-port="0" />
		<edge from-layer="89" from-port="1" to-layer="90" to-port="1" />
		<edge from-layer="90" from-port="2" to-layer="170" to-port="1" />
		<edge from-layer="90" from-port="2" to-layer="164" to-port="0" />
		<edge from-layer="90" from-port="2" to-layer="116" to-port="0" />
		<edge from-layer="90" from-port="2" to-layer="93" to-port="0" />
		<edge from-layer="90" from-port="2" to-layer="155" to-port="0" />
		<edge from-layer="91" from-port="0" to-layer="92" to-port="0" />
		<edge from-layer="92" from-port="1" to-layer="93" to-port="1" />
		<edge from-layer="93" from-port="2" to-layer="94" to-port="1" />
		<edge from-layer="94" from-port="2" to-layer="96" to-port="0" />
		<edge from-layer="95" from-port="0" to-layer="96" to-port="1" />
		<edge from-layer="96" from-port="2" to-layer="98" to-port="0" />
		<edge from-layer="97" from-port="0" to-layer="98" to-port="1" />
		<edge from-layer="98" from-port="2" to-layer="111" to-port="0" />
		<edge from-layer="98" from-port="2" to-layer="101" to-port="0" />
		<edge from-layer="99" from-port="0" to-layer="100" to-port="0" />
		<edge from-layer="100" from-port="1" to-layer="109" to-port="0" />
		<edge from-layer="101" from-port="1" to-layer="106" to-port="0" />
		<edge from-layer="102" from-port="0" to-layer="106" to-port="1" />
		<edge from-layer="103" from-port="0" to-layer="106" to-port="2" />
		<edge from-layer="104" from-port="0" to-layer="106" to-port="3" />
		<edge from-layer="105" from-port="0" to-layer="106" to-port="4" />
		<edge from-layer="106" from-port="5" to-layer="107" to-port="0" />
		<edge from-layer="107" from-port="1" to-layer="108" to-port="0" />
		<edge from-layer="108" from-port="1" to-layer="109" to-port="1" />
		<edge from-layer="109" from-port="2" to-layer="110" to-port="0" />
		<edge from-layer="110" from-port="1" to-layer="111" to-port="1" />
		<edge from-layer="110" from-port="1" to-layer="122" to-port="1" />
		<edge from-layer="111" from-port="2" to-layer="123" to-port="0" />
		<edge from-layer="112" from-port="0" to-layer="113" to-port="0" />
		<edge from-layer="113" from-port="1" to-layer="117" to-port="0" />
		<edge from-layer="114" from-port="0" to-layer="115" to-port="0" />
		<edge from-layer="115" from-port="1" to-layer="116" to-port="1" />
		<edge from-layer="116" from-port="2" to-layer="117" to-port="1" />
		<edge from-layer="117" from-port="2" to-layer="119" to-port="0" />
		<edge from-layer="118" from-port="0" to-layer="119" to-port="1" />
		<edge from-layer="119" from-port="2" to-layer="121" to-port="0" />
		<edge from-layer="120" from-port="0" to-layer="121" to-port="1" />
		<edge from-layer="121" from-port="2" to-layer="122" to-port="0" />
		<edge from-layer="122" from-port="2" to-layer="123" to-port="1" />
		<edge from-layer="123" from-port="2" to-layer="149" to-port="0" />
		<edge from-layer="124" from-port="0" to-layer="125" to-port="0" />
		<edge from-layer="125" from-port="1" to-layer="145" to-port="0" />
		<edge from-layer="126" from-port="0" to-layer="127" to-port="1" />
		<edge from-layer="127" from-port="2" to-layer="129" to-port="0" />
		<edge from-layer="128" from-port="0" to-layer="129" to-port="1" />
		<edge from-layer="129" from-port="2" to-layer="143" to-port="0" />
		<edge from-layer="130" from-port="1" to-layer="133" to-port="0" />
		<edge from-layer="130" from-port="1" to-layer="137" to-port="0" />
		<edge from-layer="131" from-port="0" to-layer="133" to-port="1" />
		<edge from-layer="132" from-port="0" to-layer="133" to-port="2" />
		<edge from-layer="133" from-port="3" to-layer="138" to-port="0" />
		<edge from-layer="134" from-port="0" to-layer="138" to-port="1" />
		<edge from-layer="135" from-port="0" to-layer="137" to-port="1" />
		<edge from-layer="136" from-port="0" to-layer="137" to-port="2" />
		<edge from-layer="137" from-port="3" to-layer="138" to-port="3" />
		<edge from-layer="138" from-port="4" to-layer="142" to-port="2" />
		<edge from-layer="138" from-port="4" to-layer="140" to-port="0" />
		<edge from-layer="139" from-port="0" to-layer="140" to-port="1" />
		<edge from-layer="140" from-port="2" to-layer="142" to-port="0" />
		<edge from-layer="141" from-port="0" to-layer="142" to-port="1" />
		<edge from-layer="142" from-port="3" to-layer="143" to-port="1" />
		<edge from-layer="143" from-port="2" to-layer="144" to-port="0" />
		<edge from-layer="144" from-port="1" to-layer="145" to-port="1" />
		<edge from-layer="145" from-port="2" to-layer="148" to-port="2" />
		<edge from-layer="145" from-port="2" to-layer="146" to-port="0" />
		<edge from-layer="146" from-port="1" to-layer="148" to-port="0" />
		<edge from-layer="147" from-port="0" to-layer="148" to-port="1" />
		<edge from-layer="148" from-port="3" to-layer="550" to-port="1" />
		<edge from-layer="148" from-port="3" to-layer="310" to-port="1" />
		<edge from-layer="148" from-port="3" to-layer="230" to-port="1" />
		<edge from-layer="148" from-port="3" to-layer="390" to-port="1" />
		<edge from-layer="148" from-port="3" to-layer="149" to-port="1" />
		<edge from-layer="148" from-port="3" to-layer="470" to-port="1" />
		<edge from-layer="149" from-port="2" to-layer="150" to-port="0" />
		<edge from-layer="150" from-port="1" to-layer="161" to-port="0" />
		<edge from-layer="151" from-port="0" to-layer="152" to-port="0" />
		<edge from-layer="152" from-port="1" to-layer="156" to-port="0" />
		<edge from-layer="153" from-port="0" to-layer="154" to-port="0" />
		<edge from-layer="154" from-port="1" to-layer="155" to-port="1" />
		<edge from-layer="155" from-port="2" to-layer="156" to-port="1" />
		<edge from-layer="156" from-port="2" to-layer="158" to-port="0" />
		<edge from-layer="157" from-port="0" to-layer="158" to-port="1" />
		<edge from-layer="158" from-port="2" to-layer="160" to-port="0" />
		<edge from-layer="159" from-port="0" to-layer="160" to-port="1" />
		<edge from-layer="160" from-port="2" to-layer="161" to-port="1" />
		<edge from-layer="161" from-port="2" to-layer="163" to-port="0" />
		<edge from-layer="162" from-port="0" to-layer="163" to-port="1" />
		<edge from-layer="163" from-port="2" to-layer="165" to-port="0" />
		<edge from-layer="164" from-port="1" to-layer="485" to-port="1" />
		<edge from-layer="164" from-port="1" to-layer="600" to-port="0" />
		<edge from-layer="164" from-port="1" to-layer="602" to-port="2" />
		<edge from-layer="164" from-port="1" to-layer="165" to-port="1" />
		<edge from-layer="164" from-port="1" to-layer="405" to-port="1" />
		<edge from-layer="164" from-port="1" to-layer="325" to-port="1" />
		<edge from-layer="164" from-port="1" to-layer="245" to-port="1" />
		<edge from-layer="164" from-port="1" to-layer="565" to-port="1" />
		<edge from-layer="165" from-port="2" to-layer="168" to-port="0" />
		<edge from-layer="166" from-port="0" to-layer="167" to-port="0" />
		<edge from-layer="167" from-port="1" to-layer="168" to-port="1" />
		<edge from-layer="168" from-port="2" to-layer="169" to-port="1" />
		<edge from-layer="169" from-port="2" to-layer="170" to-port="0" />
		<edge from-layer="170" from-port="2" to-layer="172" to-port="0" />
		<edge from-layer="171" from-port="0" to-layer="172" to-port="1" />
		<edge from-layer="172" from-port="2" to-layer="175" to-port="0" />
		<edge from-layer="173" from-port="0" to-layer="174" to-port="0" />
		<edge from-layer="174" from-port="1" to-layer="175" to-port="1" />
		<edge from-layer="175" from-port="2" to-layer="178" to-port="0" />
		<edge from-layer="176" from-port="0" to-layer="177" to-port="0" />
		<edge from-layer="177" from-port="1" to-layer="178" to-port="1" />
		<edge from-layer="178" from-port="2" to-layer="188" to-port="1" />
		<edge from-layer="178" from-port="2" to-layer="181" to-port="0" />
		<edge from-layer="179" from-port="0" to-layer="180" to-port="0" />
		<edge from-layer="180" from-port="1" to-layer="181" to-port="1" />
		<edge from-layer="181" from-port="2" to-layer="182" to-port="1" />
		<edge from-layer="182" from-port="2" to-layer="183" to-port="0" />
		<edge from-layer="183" from-port="1" to-layer="186" to-port="0" />
		<edge from-layer="184" from-port="0" to-layer="185" to-port="0" />
		<edge from-layer="185" from-port="1" to-layer="186" to-port="1" />
		<edge from-layer="186" from-port="2" to-layer="187" to-port="1" />
		<edge from-layer="187" from-port="2" to-layer="188" to-port="0" />
		<edge from-layer="188" from-port="2" to-layer="190" to-port="0" />
		<edge from-layer="189" from-port="0" to-layer="190" to-port="1" />
		<edge from-layer="190" from-port="2" to-layer="193" to-port="0" />
		<edge from-layer="191" from-port="0" to-layer="192" to-port="0" />
		<edge from-layer="192" from-port="1" to-layer="193" to-port="1" />
		<edge from-layer="193" from-port="2" to-layer="196" to-port="0" />
		<edge from-layer="194" from-port="0" to-layer="195" to-port="0" />
		<edge from-layer="195" from-port="1" to-layer="196" to-port="1" />
		<edge from-layer="196" from-port="2" to-layer="199" to-port="0" />
		<edge from-layer="196" from-port="2" to-layer="236" to-port="0" />
		<edge from-layer="196" from-port="2" to-layer="222" to-port="0" />
		<edge from-layer="196" from-port="2" to-layer="250" to-port="1" />
		<edge from-layer="197" from-port="0" to-layer="198" to-port="0" />
		<edge from-layer="198" from-port="1" to-layer="199" to-port="1" />
		<edge from-layer="199" from-port="2" to-layer="200" to-port="1" />
		<edge from-layer="200" from-port="2" to-layer="202" to-port="0" />
		<edge from-layer="201" from-port="0" to-layer="202" to-port="1" />
		<edge from-layer="202" from-port="2" to-layer="204" to-port="0" />
		<edge from-layer="203" from-port="0" to-layer="204" to-port="1" />
		<edge from-layer="204" from-port="2" to-layer="207" to-port="0" />
		<edge from-layer="204" from-port="2" to-layer="217" to-port="0" />
		<edge from-layer="205" from-port="0" to-layer="206" to-port="0" />
		<edge from-layer="206" from-port="1" to-layer="215" to-port="0" />
		<edge from-layer="207" from-port="1" to-layer="212" to-port="0" />
		<edge from-layer="208" from-port="0" to-layer="212" to-port="1" />
		<edge from-layer="209" from-port="0" to-layer="212" to-port="2" />
		<edge from-layer="210" from-port="0" to-layer="212" to-port="3" />
		<edge from-layer="211" from-port="0" to-layer="212" to-port="4" />
		<edge from-layer="212" from-port="5" to-layer="213" to-port="0" />
		<edge from-layer="213" from-port="1" to-layer="214" to-port="0" />
		<edge from-layer="214" from-port="1" to-layer="215" to-port="1" />
		<edge from-layer="215" from-port="2" to-layer="216" to-port="0" />
		<edge from-layer="216" from-port="1" to-layer="217" to-port="1" />
		<edge from-layer="216" from-port="1" to-layer="228" to-port="1" />
		<edge from-layer="217" from-port="2" to-layer="229" to-port="0" />
		<edge from-layer="218" from-port="0" to-layer="219" to-port="0" />
		<edge from-layer="219" from-port="1" to-layer="223" to-port="0" />
		<edge from-layer="220" from-port="0" to-layer="221" to-port="0" />
		<edge from-layer="221" from-port="1" to-layer="222" to-port="1" />
		<edge from-layer="222" from-port="2" to-layer="223" to-port="1" />
		<edge from-layer="223" from-port="2" to-layer="225" to-port="0" />
		<edge from-layer="224" from-port="0" to-layer="225" to-port="1" />
		<edge from-layer="225" from-port="2" to-layer="227" to-port="0" />
		<edge from-layer="226" from-port="0" to-layer="227" to-port="1" />
		<edge from-layer="227" from-port="2" to-layer="228" to-port="0" />
		<edge from-layer="228" from-port="2" to-layer="229" to-port="1" />
		<edge from-layer="229" from-port="2" to-layer="230" to-port="0" />
		<edge from-layer="230" from-port="2" to-layer="231" to-port="0" />
		<edge from-layer="231" from-port="1" to-layer="242" to-port="0" />
		<edge from-layer="232" from-port="0" to-layer="233" to-port="0" />
		<edge from-layer="233" from-port="1" to-layer="237" to-port="0" />
		<edge from-layer="234" from-port="0" to-layer="235" to-port="0" />
		<edge from-layer="235" from-port="1" to-layer="236" to-port="1" />
		<edge from-layer="236" from-port="2" to-layer="237" to-port="1" />
		<edge from-layer="237" from-port="2" to-layer="239" to-port="0" />
		<edge from-layer="238" from-port="0" to-layer="239" to-port="1" />
		<edge from-layer="239" from-port="2" to-layer="241" to-port="0" />
		<edge from-layer="240" from-port="0" to-layer="241" to-port="1" />
		<edge from-layer="241" from-port="2" to-layer="242" to-port="1" />
		<edge from-layer="242" from-port="2" to-layer="244" to-port="0" />
		<edge from-layer="243" from-port="0" to-layer="244" to-port="1" />
		<edge from-layer="244" from-port="2" to-layer="245" to-port="0" />
		<edge from-layer="245" from-port="2" to-layer="248" to-port="0" />
		<edge from-layer="246" from-port="0" to-layer="247" to-port="0" />
		<edge from-layer="247" from-port="1" to-layer="248" to-port="1" />
		<edge from-layer="248" from-port="2" to-layer="249" to-port="1" />
		<edge from-layer="249" from-port="2" to-layer="250" to-port="0" />
		<edge from-layer="250" from-port="2" to-layer="252" to-port="0" />
		<edge from-layer="251" from-port="0" to-layer="252" to-port="1" />
		<edge from-layer="252" from-port="2" to-layer="255" to-port="0" />
		<edge from-layer="253" from-port="0" to-layer="254" to-port="0" />
		<edge from-layer="254" from-port="1" to-layer="255" to-port="1" />
		<edge from-layer="255" from-port="2" to-layer="258" to-port="0" />
		<edge from-layer="256" from-port="0" to-layer="257" to-port="0" />
		<edge from-layer="257" from-port="1" to-layer="258" to-port="1" />
		<edge from-layer="258" from-port="2" to-layer="261" to-port="0" />
		<edge from-layer="258" from-port="2" to-layer="268" to-port="1" />
		<edge from-layer="259" from-port="0" to-layer="260" to-port="0" />
		<edge from-layer="260" from-port="1" to-layer="261" to-port="1" />
		<edge from-layer="261" from-port="2" to-layer="262" to-port="1" />
		<edge from-layer="262" from-port="2" to-layer="263" to-port="0" />
		<edge from-layer="263" from-port="1" to-layer="266" to-port="0" />
		<edge from-layer="264" from-port="0" to-layer="265" to-port="0" />
		<edge from-layer="265" from-port="1" to-layer="266" to-port="1" />
		<edge from-layer="266" from-port="2" to-layer="267" to-port="1" />
		<edge from-layer="267" from-port="2" to-layer="268" to-port="0" />
		<edge from-layer="268" from-port="2" to-layer="270" to-port="0" />
		<edge from-layer="269" from-port="0" to-layer="270" to-port="1" />
		<edge from-layer="270" from-port="2" to-layer="273" to-port="0" />
		<edge from-layer="271" from-port="0" to-layer="272" to-port="0" />
		<edge from-layer="272" from-port="1" to-layer="273" to-port="1" />
		<edge from-layer="273" from-port="2" to-layer="276" to-port="0" />
		<edge from-layer="274" from-port="0" to-layer="275" to-port="0" />
		<edge from-layer="275" from-port="1" to-layer="276" to-port="1" />
		<edge from-layer="276" from-port="2" to-layer="279" to-port="0" />
		<edge from-layer="276" from-port="2" to-layer="330" to-port="1" />
		<edge from-layer="276" from-port="2" to-layer="316" to-port="0" />
		<edge from-layer="276" from-port="2" to-layer="302" to-port="0" />
		<edge from-layer="277" from-port="0" to-layer="278" to-port="0" />
		<edge from-layer="278" from-port="1" to-layer="279" to-port="1" />
		<edge from-layer="279" from-port="2" to-layer="280" to-port="1" />
		<edge from-layer="280" from-port="2" to-layer="282" to-port="0" />
		<edge from-layer="281" from-port="0" to-layer="282" to-port="1" />
		<edge from-layer="282" from-port="2" to-layer="284" to-port="0" />
		<edge from-layer="283" from-port="0" to-layer="284" to-port="1" />
		<edge from-layer="284" from-port="2" to-layer="297" to-port="0" />
		<edge from-layer="284" from-port="2" to-layer="287" to-port="0" />
		<edge from-layer="285" from-port="0" to-layer="286" to-port="0" />
		<edge from-layer="286" from-port="1" to-layer="295" to-port="0" />
		<edge from-layer="287" from-port="1" to-layer="292" to-port="0" />
		<edge from-layer="288" from-port="0" to-layer="292" to-port="1" />
		<edge from-layer="289" from-port="0" to-layer="292" to-port="2" />
		<edge from-layer="290" from-port="0" to-layer="292" to-port="3" />
		<edge from-layer="291" from-port="0" to-layer="292" to-port="4" />
		<edge from-layer="292" from-port="5" to-layer="293" to-port="0" />
		<edge from-layer="293" from-port="1" to-layer="294" to-port="0" />
		<edge from-layer="294" from-port="1" to-layer="295" to-port="1" />
		<edge from-layer="295" from-port="2" to-layer="296" to-port="0" />
		<edge from-layer="296" from-port="1" to-layer="297" to-port="1" />
		<edge from-layer="296" from-port="1" to-layer="308" to-port="1" />
		<edge from-layer="297" from-port="2" to-layer="309" to-port="0" />
		<edge from-layer="298" from-port="0" to-layer="299" to-port="0" />
		<edge from-layer="299" from-port="1" to-layer="303" to-port="0" />
		<edge from-layer="300" from-port="0" to-layer="301" to-port="0" />
		<edge from-layer="301" from-port="1" to-layer="302" to-port="1" />
		<edge from-layer="302" from-port="2" to-layer="303" to-port="1" />
		<edge from-layer="303" from-port="2" to-layer="305" to-port="0" />
		<edge from-layer="304" from-port="0" to-layer="305" to-port="1" />
		<edge from-layer="305" from-port="2" to-layer="307" to-port="0" />
		<edge from-layer="306" from-port="0" to-layer="307" to-port="1" />
		<edge from-layer="307" from-port="2" to-layer="308" to-port="0" />
		<edge from-layer="308" from-port="2" to-layer="309" to-port="1" />
		<edge from-layer="309" from-port="2" to-layer="310" to-port="0" />
		<edge from-layer="310" from-port="2" to-layer="311" to-port="0" />
		<edge from-layer="311" from-port="1" to-layer="322" to-port="0" />
		<edge from-layer="312" from-port="0" to-layer="313" to-port="0" />
		<edge from-layer="313" from-port="1" to-layer="317" to-port="0" />
		<edge from-layer="314" from-port="0" to-layer="315" to-port="0" />
		<edge from-layer="315" from-port="1" to-layer="316" to-port="1" />
		<edge from-layer="316" from-port="2" to-layer="317" to-port="1" />
		<edge from-layer="317" from-port="2" to-layer="319" to-port="0" />
		<edge from-layer="318" from-port="0" to-layer="319" to-port="1" />
		<edge from-layer="319" from-port="2" to-layer="321" to-port="0" />
		<edge from-layer="320" from-port="0" to-layer="321" to-port="1" />
		<edge from-layer="321" from-port="2" to-layer="322" to-port="1" />
		<edge from-layer="322" from-port="2" to-layer="324" to-port="0" />
		<edge from-layer="323" from-port="0" to-layer="324" to-port="1" />
		<edge from-layer="324" from-port="2" to-layer="325" to-port="0" />
		<edge from-layer="325" from-port="2" to-layer="328" to-port="0" />
		<edge from-layer="326" from-port="0" to-layer="327" to-port="0" />
		<edge from-layer="327" from-port="1" to-layer="328" to-port="1" />
		<edge from-layer="328" from-port="2" to-layer="329" to-port="1" />
		<edge from-layer="329" from-port="2" to-layer="330" to-port="0" />
		<edge from-layer="330" from-port="2" to-layer="332" to-port="0" />
		<edge from-layer="331" from-port="0" to-layer="332" to-port="1" />
		<edge from-layer="332" from-port="2" to-layer="335" to-port="0" />
		<edge from-layer="333" from-port="0" to-layer="334" to-port="0" />
		<edge from-layer="334" from-port="1" to-layer="335" to-port="1" />
		<edge from-layer="335" from-port="2" to-layer="338" to-port="0" />
		<edge from-layer="336" from-port="0" to-layer="337" to-port="0" />
		<edge from-layer="337" from-port="1" to-layer="338" to-port="1" />
		<edge from-layer="338" from-port="2" to-layer="341" to-port="0" />
		<edge from-layer="338" from-port="2" to-layer="348" to-port="1" />
		<edge from-layer="339" from-port="0" to-layer="340" to-port="0" />
		<edge from-layer="340" from-port="1" to-layer="341" to-port="1" />
		<edge from-layer="341" from-port="2" to-layer="342" to-port="1" />
		<edge from-layer="342" from-port="2" to-layer="343" to-port="0" />
		<edge from-layer="343" from-port="1" to-layer="346" to-port="0" />
		<edge from-layer="344" from-port="0" to-layer="345" to-port="0" />
		<edge from-layer="345" from-port="1" to-layer="346" to-port="1" />
		<edge from-layer="346" from-port="2" to-layer="347" to-port="1" />
		<edge from-layer="347" from-port="2" to-layer="348" to-port="0" />
		<edge from-layer="348" from-port="2" to-layer="350" to-port="0" />
		<edge from-layer="349" from-port="0" to-layer="350" to-port="1" />
		<edge from-layer="350" from-port="2" to-layer="353" to-port="0" />
		<edge from-layer="351" from-port="0" to-layer="352" to-port="0" />
		<edge from-layer="352" from-port="1" to-layer="353" to-port="1" />
		<edge from-layer="353" from-port="2" to-layer="356" to-port="0" />
		<edge from-layer="354" from-port="0" to-layer="355" to-port="0" />
		<edge from-layer="355" from-port="1" to-layer="356" to-port="1" />
		<edge from-layer="356" from-port="2" to-layer="410" to-port="1" />
		<edge from-layer="356" from-port="2" to-layer="359" to-port="0" />
		<edge from-layer="356" from-port="2" to-layer="396" to-port="0" />
		<edge from-layer="356" from-port="2" to-layer="382" to-port="0" />
		<edge from-layer="357" from-port="0" to-layer="358" to-port="0" />
		<edge from-layer="358" from-port="1" to-layer="359" to-port="1" />
		<edge from-layer="359" from-port="2" to-layer="360" to-port="1" />
		<edge from-layer="360" from-port="2" to-layer="362" to-port="0" />
		<edge from-layer="361" from-port="0" to-layer="362" to-port="1" />
		<edge from-layer="362" from-port="2" to-layer="364" to-port="0" />
		<edge from-layer="363" from-port="0" to-layer="364" to-port="1" />
		<edge from-layer="364" from-port="2" to-layer="367" to-port="0" />
		<edge from-layer="364" from-port="2" to-layer="377" to-port="0" />
		<edge from-layer="365" from-port="0" to-layer="366" to-port="0" />
		<edge from-layer="366" from-port="1" to-layer="375" to-port="0" />
		<edge from-layer="367" from-port="1" to-layer="372" to-port="0" />
		<edge from-layer="368" from-port="0" to-layer="372" to-port="1" />
		<edge from-layer="369" from-port="0" to-layer="372" to-port="2" />
		<edge from-layer="370" from-port="0" to-layer="372" to-port="3" />
		<edge from-layer="371" from-port="0" to-layer="372" to-port="4" />
		<edge from-layer="372" from-port="5" to-layer="373" to-port="0" />
		<edge from-layer="373" from-port="1" to-layer="374" to-port="0" />
		<edge from-layer="374" from-port="1" to-layer="375" to-port="1" />
		<edge from-layer="375" from-port="2" to-layer="376" to-port="0" />
		<edge from-layer="376" from-port="1" to-layer="388" to-port="1" />
		<edge from-layer="376" from-port="1" to-layer="377" to-port="1" />
		<edge from-layer="377" from-port="2" to-layer="389" to-port="0" />
		<edge from-layer="378" from-port="0" to-layer="379" to-port="0" />
		<edge from-layer="379" from-port="1" to-layer="383" to-port="0" />
		<edge from-layer="380" from-port="0" to-layer="381" to-port="0" />
		<edge from-layer="381" from-port="1" to-layer="382" to-port="1" />
		<edge from-layer="382" from-port="2" to-layer="383" to-port="1" />
		<edge from-layer="383" from-port="2" to-layer="385" to-port="0" />
		<edge from-layer="384" from-port="0" to-layer="385" to-port="1" />
		<edge from-layer="385" from-port="2" to-layer="387" to-port="0" />
		<edge from-layer="386" from-port="0" to-layer="387" to-port="1" />
		<edge from-layer="387" from-port="2" to-layer="388" to-port="0" />
		<edge from-layer="388" from-port="2" to-layer="389" to-port="1" />
		<edge from-layer="389" from-port="2" to-layer="390" to-port="0" />
		<edge from-layer="390" from-port="2" to-layer="391" to-port="0" />
		<edge from-layer="391" from-port="1" to-layer="402" to-port="0" />
		<edge from-layer="392" from-port="0" to-layer="393" to-port="0" />
		<edge from-layer="393" from-port="1" to-layer="397" to-port="0" />
		<edge from-layer="394" from-port="0" to-layer="395" to-port="0" />
		<edge from-layer="395" from-port="1" to-layer="396" to-port="1" />
		<edge from-layer="396" from-port="2" to-layer="397" to-port="1" />
		<edge from-layer="397" from-port="2" to-layer="399" to-port="0" />
		<edge from-layer="398" from-port="0" to-layer="399" to-port="1" />
		<edge from-layer="399" from-port="2" to-layer="401" to-port="0" />
		<edge from-layer="400" from-port="0" to-layer="401" to-port="1" />
		<edge from-layer="401" from-port="2" to-layer="402" to-port="1" />
		<edge from-layer="402" from-port="2" to-layer="404" to-port="0" />
		<edge from-layer="403" from-port="0" to-layer="404" to-port="1" />
		<edge from-layer="404" from-port="2" to-layer="405" to-port="0" />
		<edge from-layer="405" from-port="2" to-layer="408" to-port="0" />
		<edge from-layer="406" from-port="0" to-layer="407" to-port="0" />
		<edge from-layer="407" from-port="1" to-layer="408" to-port="1" />
		<edge from-layer="408" from-port="2" to-layer="409" to-port="1" />
		<edge from-layer="409" from-port="2" to-layer="410" to-port="0" />
		<edge from-layer="410" from-port="2" to-layer="412" to-port="0" />
		<edge from-layer="411" from-port="0" to-layer="412" to-port="1" />
		<edge from-layer="412" from-port="2" to-layer="415" to-port="0" />
		<edge from-layer="413" from-port="0" to-layer="414" to-port="0" />
		<edge from-layer="414" from-port="1" to-layer="415" to-port="1" />
		<edge from-layer="415" from-port="2" to-layer="418" to-port="0" />
		<edge from-layer="416" from-port="0" to-layer="417" to-port="0" />
		<edge from-layer="417" from-port="1" to-layer="418" to-port="1" />
		<edge from-layer="418" from-port="2" to-layer="421" to-port="0" />
		<edge from-layer="418" from-port="2" to-layer="428" to-port="1" />
		<edge from-layer="419" from-port="0" to-layer="420" to-port="0" />
		<edge from-layer="420" from-port="1" to-layer="421" to-port="1" />
		<edge from-layer="421" from-port="2" to-layer="422" to-port="1" />
		<edge from-layer="422" from-port="2" to-layer="423" to-port="0" />
		<edge from-layer="423" from-port="1" to-layer="426" to-port="0" />
		<edge from-layer="424" from-port="0" to-layer="425" to-port="0" />
		<edge from-layer="425" from-port="1" to-layer="426" to-port="1" />
		<edge from-layer="426" from-port="2" to-layer="427" to-port="1" />
		<edge from-layer="427" from-port="2" to-layer="428" to-port="0" />
		<edge from-layer="428" from-port="2" to-layer="430" to-port="0" />
		<edge from-layer="429" from-port="0" to-layer="430" to-port="1" />
		<edge from-layer="430" from-port="2" to-layer="433" to-port="0" />
		<edge from-layer="431" from-port="0" to-layer="432" to-port="0" />
		<edge from-layer="432" from-port="1" to-layer="433" to-port="1" />
		<edge from-layer="433" from-port="2" to-layer="436" to-port="0" />
		<edge from-layer="434" from-port="0" to-layer="435" to-port="0" />
		<edge from-layer="435" from-port="1" to-layer="436" to-port="1" />
		<edge from-layer="436" from-port="2" to-layer="476" to-port="0" />
		<edge from-layer="436" from-port="2" to-layer="439" to-port="0" />
		<edge from-layer="436" from-port="2" to-layer="490" to-port="1" />
		<edge from-layer="436" from-port="2" to-layer="462" to-port="0" />
		<edge from-layer="437" from-port="0" to-layer="438" to-port="0" />
		<edge from-layer="438" from-port="1" to-layer="439" to-port="1" />
		<edge from-layer="439" from-port="2" to-layer="440" to-port="1" />
		<edge from-layer="440" from-port="2" to-layer="442" to-port="0" />
		<edge from-layer="441" from-port="0" to-layer="442" to-port="1" />
		<edge from-layer="442" from-port="2" to-layer="444" to-port="0" />
		<edge from-layer="443" from-port="0" to-layer="444" to-port="1" />
		<edge from-layer="444" from-port="2" to-layer="457" to-port="0" />
		<edge from-layer="444" from-port="2" to-layer="447" to-port="0" />
		<edge from-layer="445" from-port="0" to-layer="446" to-port="0" />
		<edge from-layer="446" from-port="1" to-layer="455" to-port="0" />
		<edge from-layer="447" from-port="1" to-layer="452" to-port="0" />
		<edge from-layer="448" from-port="0" to-layer="452" to-port="1" />
		<edge from-layer="449" from-port="0" to-layer="452" to-port="2" />
		<edge from-layer="450" from-port="0" to-layer="452" to-port="3" />
		<edge from-layer="451" from-port="0" to-layer="452" to-port="4" />
		<edge from-layer="452" from-port="5" to-layer="453" to-port="0" />
		<edge from-layer="453" from-port="1" to-layer="454" to-port="0" />
		<edge from-layer="454" from-port="1" to-layer="455" to-port="1" />
		<edge from-layer="455" from-port="2" to-layer="456" to-port="0" />
		<edge from-layer="456" from-port="1" to-layer="457" to-port="1" />
		<edge from-layer="456" from-port="1" to-layer="468" to-port="1" />
		<edge from-layer="457" from-port="2" to-layer="469" to-port="0" />
		<edge from-layer="458" from-port="0" to-layer="459" to-port="0" />
		<edge from-layer="459" from-port="1" to-layer="463" to-port="0" />
		<edge from-layer="460" from-port="0" to-layer="461" to-port="0" />
		<edge from-layer="461" from-port="1" to-layer="462" to-port="1" />
		<edge from-layer="462" from-port="2" to-layer="463" to-port="1" />
		<edge from-layer="463" from-port="2" to-layer="465" to-port="0" />
		<edge from-layer="464" from-port="0" to-layer="465" to-port="1" />
		<edge from-layer="465" from-port="2" to-layer="467" to-port="0" />
		<edge from-layer="466" from-port="0" to-layer="467" to-port="1" />
		<edge from-layer="467" from-port="2" to-layer="468" to-port="0" />
		<edge from-layer="468" from-port="2" to-layer="469" to-port="1" />
		<edge from-layer="469" from-port="2" to-layer="470" to-port="0" />
		<edge from-layer="470" from-port="2" to-layer="471" to-port="0" />
		<edge from-layer="471" from-port="1" to-layer="482" to-port="0" />
		<edge from-layer="472" from-port="0" to-layer="473" to-port="0" />
		<edge from-layer="473" from-port="1" to-layer="477" to-port="0" />
		<edge from-layer="474" from-port="0" to-layer="475" to-port="0" />
		<edge from-layer="475" from-port="1" to-layer="476" to-port="1" />
		<edge from-layer="476" from-port="2" to-layer="477" to-port="1" />
		<edge from-layer="477" from-port="2" to-layer="479" to-port="0" />
		<edge from-layer="478" from-port="0" to-layer="479" to-port="1" />
		<edge from-layer="479" from-port="2" to-layer="481" to-port="0" />
		<edge from-layer="480" from-port="0" to-layer="481" to-port="1" />
		<edge from-layer="481" from-port="2" to-layer="482" to-port="1" />
		<edge from-layer="482" from-port="2" to-layer="484" to-port="0" />
		<edge from-layer="483" from-port="0" to-layer="484" to-port="1" />
		<edge from-layer="484" from-port="2" to-layer="485" to-port="0" />
		<edge from-layer="485" from-port="2" to-layer="488" to-port="0" />
		<edge from-layer="486" from-port="0" to-layer="487" to-port="0" />
		<edge from-layer="487" from-port="1" to-layer="488" to-port="1" />
		<edge from-layer="488" from-port="2" to-layer="489" to-port="1" />
		<edge from-layer="489" from-port="2" to-layer="490" to-port="0" />
		<edge from-layer="490" from-port="2" to-layer="492" to-port="0" />
		<edge from-layer="491" from-port="0" to-layer="492" to-port="1" />
		<edge from-layer="492" from-port="2" to-layer="495" to-port="0" />
		<edge from-layer="493" from-port="0" to-layer="494" to-port="0" />
		<edge from-layer="494" from-port="1" to-layer="495" to-port="1" />
		<edge from-layer="495" from-port="2" to-layer="498" to-port="0" />
		<edge from-layer="496" from-port="0" to-layer="497" to-port="0" />
		<edge from-layer="497" from-port="1" to-layer="498" to-port="1" />
		<edge from-layer="498" from-port="2" to-layer="508" to-port="1" />
		<edge from-layer="498" from-port="2" to-layer="501" to-port="0" />
		<edge from-layer="499" from-port="0" to-layer="500" to-port="0" />
		<edge from-layer="500" from-port="1" to-layer="501" to-port="1" />
		<edge from-layer="501" from-port="2" to-layer="502" to-port="1" />
		<edge from-layer="502" from-port="2" to-layer="503" to-port="0" />
		<edge from-layer="503" from-port="1" to-layer="506" to-port="0" />
		<edge from-layer="504" from-port="0" to-layer="505" to-port="0" />
		<edge from-layer="505" from-port="1" to-layer="506" to-port="1" />
		<edge from-layer="506" from-port="2" to-layer="507" to-port="1" />
		<edge from-layer="507" from-port="2" to-layer="508" to-port="0" />
		<edge from-layer="508" from-port="2" to-layer="510" to-port="0" />
		<edge from-layer="509" from-port="0" to-layer="510" to-port="1" />
		<edge from-layer="510" from-port="2" to-layer="513" to-port="0" />
		<edge from-layer="511" from-port="0" to-layer="512" to-port="0" />
		<edge from-layer="512" from-port="1" to-layer="513" to-port="1" />
		<edge from-layer="513" from-port="2" to-layer="516" to-port="0" />
		<edge from-layer="514" from-port="0" to-layer="515" to-port="0" />
		<edge from-layer="515" from-port="1" to-layer="516" to-port="1" />
		<edge from-layer="516" from-port="2" to-layer="542" to-port="0" />
		<edge from-layer="516" from-port="2" to-layer="556" to-port="0" />
		<edge from-layer="516" from-port="2" to-layer="570" to-port="1" />
		<edge from-layer="516" from-port="2" to-layer="519" to-port="0" />
		<edge from-layer="517" from-port="0" to-layer="518" to-port="0" />
		<edge from-layer="518" from-port="1" to-layer="519" to-port="1" />
		<edge from-layer="519" from-port="2" to-layer="520" to-port="1" />
		<edge from-layer="520" from-port="2" to-layer="522" to-port="0" />
		<edge from-layer="521" from-port="0" to-layer="522" to-port="1" />
		<edge from-layer="522" from-port="2" to-layer="524" to-port="0" />
		<edge from-layer="523" from-port="0" to-layer="524" to-port="1" />
		<edge from-layer="524" from-port="2" to-layer="527" to-port="0" />
		<edge from-layer="524" from-port="2" to-layer="537" to-port="0" />
		<edge from-layer="525" from-port="0" to-layer="526" to-port="0" />
		<edge from-layer="526" from-port="1" to-layer="535" to-port="0" />
		<edge from-layer="527" from-port="1" to-layer="532" to-port="0" />
		<edge from-layer="528" from-port="0" to-layer="532" to-port="1" />
		<edge from-layer="529" from-port="0" to-layer="532" to-port="2" />
		<edge from-layer="530" from-port="0" to-layer="532" to-port="3" />
		<edge from-layer="531" from-port="0" to-layer="532" to-port="4" />
		<edge from-layer="532" from-port="5" to-layer="533" to-port="0" />
		<edge from-layer="533" from-port="1" to-layer="534" to-port="0" />
		<edge from-layer="534" from-port="1" to-layer="535" to-port="1" />
		<edge from-layer="535" from-port="2" to-layer="536" to-port="0" />
		<edge from-layer="536" from-port="1" to-layer="537" to-port="1" />
		<edge from-layer="536" from-port="1" to-layer="548" to-port="1" />
		<edge from-layer="537" from-port="2" to-layer="549" to-port="0" />
		<edge from-layer="538" from-port="0" to-layer="539" to-port="0" />
		<edge from-layer="539" from-port="1" to-layer="543" to-port="0" />
		<edge from-layer="540" from-port="0" to-layer="541" to-port="0" />
		<edge from-layer="541" from-port="1" to-layer="542" to-port="1" />
		<edge from-layer="542" from-port="2" to-layer="543" to-port="1" />
		<edge from-layer="543" from-port="2" to-layer="545" to-port="0" />
		<edge from-layer="544" from-port="0" to-layer="545" to-port="1" />
		<edge from-layer="545" from-port="2" to-layer="547" to-port="0" />
		<edge from-layer="546" from-port="0" to-layer="547" to-port="1" />
		<edge from-layer="547" from-port="2" to-layer="548" to-port="0" />
		<edge from-layer="548" from-port="2" to-layer="549" to-port="1" />
		<edge from-layer="549" from-port="2" to-layer="550" to-port="0" />
		<edge from-layer="550" from-port="2" to-layer="551" to-port="0" />
		<edge from-layer="551" from-port="1" to-layer="562" to-port="0" />
		<edge from-layer="552" from-port="0" to-layer="553" to-port="0" />
		<edge from-layer="553" from-port="1" to-layer="557" to-port="0" />
		<edge from-layer="554" from-port="0" to-layer="555" to-port="0" />
		<edge from-layer="555" from-port="1" to-layer="556" to-port="1" />
		<edge from-layer="556" from-port="2" to-layer="557" to-port="1" />
		<edge from-layer="557" from-port="2" to-layer="559" to-port="0" />
		<edge from-layer="558" from-port="0" to-layer="559" to-port="1" />
		<edge from-layer="559" from-port="2" to-layer="561" to-port="0" />
		<edge from-layer="560" from-port="0" to-layer="561" to-port="1" />
		<edge from-layer="561" from-port="2" to-layer="562" to-port="1" />
		<edge from-layer="562" from-port="2" to-layer="564" to-port="0" />
		<edge from-layer="563" from-port="0" to-layer="564" to-port="1" />
		<edge from-layer="564" from-port="2" to-layer="565" to-port="0" />
		<edge from-layer="565" from-port="2" to-layer="568" to-port="0" />
		<edge from-layer="566" from-port="0" to-layer="567" to-port="0" />
		<edge from-layer="567" from-port="1" to-layer="568" to-port="1" />
		<edge from-layer="568" from-port="2" to-layer="569" to-port="1" />
		<edge from-layer="569" from-port="2" to-layer="570" to-port="0" />
		<edge from-layer="570" from-port="2" to-layer="572" to-port="0" />
		<edge from-layer="571" from-port="0" to-layer="572" to-port="1" />
		<edge from-layer="572" from-port="2" to-layer="575" to-port="0" />
		<edge from-layer="573" from-port="0" to-layer="574" to-port="0" />
		<edge from-layer="574" from-port="1" to-layer="575" to-port="1" />
		<edge from-layer="575" from-port="2" to-layer="578" to-port="0" />
		<edge from-layer="576" from-port="0" to-layer="577" to-port="0" />
		<edge from-layer="577" from-port="1" to-layer="578" to-port="1" />
		<edge from-layer="578" from-port="2" to-layer="581" to-port="0" />
		<edge from-layer="578" from-port="2" to-layer="588" to-port="1" />
		<edge from-layer="579" from-port="0" to-layer="580" to-port="0" />
		<edge from-layer="580" from-port="1" to-layer="581" to-port="1" />
		<edge from-layer="581" from-port="2" to-layer="582" to-port="1" />
		<edge from-layer="582" from-port="2" to-layer="583" to-port="0" />
		<edge from-layer="583" from-port="1" to-layer="586" to-port="0" />
		<edge from-layer="584" from-port="0" to-layer="585" to-port="0" />
		<edge from-layer="585" from-port="1" to-layer="586" to-port="1" />
		<edge from-layer="586" from-port="2" to-layer="587" to-port="1" />
		<edge from-layer="587" from-port="2" to-layer="588" to-port="0" />
		<edge from-layer="588" from-port="2" to-layer="590" to-port="0" />
		<edge from-layer="589" from-port="0" to-layer="590" to-port="1" />
		<edge from-layer="590" from-port="2" to-layer="593" to-port="0" />
		<edge from-layer="591" from-port="0" to-layer="592" to-port="0" />
		<edge from-layer="592" from-port="1" to-layer="593" to-port="1" />
		<edge from-layer="593" from-port="2" to-layer="596" to-port="0" />
		<edge from-layer="594" from-port="0" to-layer="595" to-port="0" />
		<edge from-layer="595" from-port="1" to-layer="596" to-port="1" />
		<edge from-layer="596" from-port="2" to-layer="616" to-port="0" />
		<edge from-layer="596" from-port="2" to-layer="605" to-port="0" />
		<edge from-layer="597" from-port="0" to-layer="598" to-port="1" />
		<edge from-layer="598" from-port="2" to-layer="603" to-port="0" />
		<edge from-layer="599" from-port="0" to-layer="600" to-port="1" />
		<edge from-layer="600" from-port="2" to-layer="602" to-port="0" />
		<edge from-layer="601" from-port="0" to-layer="602" to-port="1" />
		<edge from-layer="602" from-port="3" to-layer="603" to-port="1" />
		<edge from-layer="603" from-port="2" to-layer="604" to-port="0" />
		<edge from-layer="604" from-port="1" to-layer="605" to-port="1" />
		<edge from-layer="604" from-port="1" to-layer="608" to-port="0" />
		<edge from-layer="605" from-port="2" to-layer="607" to-port="0" />
		<edge from-layer="606" from-port="0" to-layer="607" to-port="1" />
		<edge from-layer="606" from-port="0" to-layer="608" to-port="1" />
		<edge from-layer="607" from-port="2" to-layer="610" to-port="0" />
		<edge from-layer="608" from-port="2" to-layer="609" to-port="0" />
		<edge from-layer="609" from-port="1" to-layer="610" to-port="1" />
		<edge from-layer="610" from-port="2" to-layer="612" to-port="0" />
		<edge from-layer="610" from-port="2" to-layer="614" to-port="0" />
		<edge from-layer="611" from-port="0" to-layer="612" to-port="1" />
		<edge from-layer="612" from-port="2" to-layer="613" to-port="0" />
		<edge from-layer="613" from-port="1" to-layer="614" to-port="1" />
		<edge from-layer="614" from-port="2" to-layer="615" to-port="0" />
	</edges>
	<rt_info>
		<Runtime_version value="2024.6.0-17404-4c0f47d2335-releases/2024/6" />
		<conversion_parameters>
			<is_python_object value="False" />
			<output_model value="Models/TypingMetrics/TypingMetrics_Think/app/utils/openvino_minilm/model.xml" />
		</conversion_parameters>
	</rt_info>
</net>
